…
snapshot_prefix: "snapshot_rmsprop_uburn"
solver_mode: GPU
device_id: 0
train_state {
  level: 0
  stage: ""
}
iter_size: 10
rms_decay: 0.9
type: "RMSProp"
I0825 17:21:28.321887 27361 solver.cpp:81] Creating training net from train_net file: ub_uresnet_train.prototxt
I0825 17:21:28.324471 27361 net.cpp:58] Initializing net from parameters: 
name: "uB-U-ResNet"
state {
  phase: TRAIN
  level: 0
  stage: ""
}
layer {
  name: "data"
  type: "ROOTData"
  top: "data"
  top: "label"
  root_data_param {
    batch_size: 1
    filler_config: "filler.cfg"
    filler_name: "train"
  }
}
layer {
  name: "resnet1a_bypass"
  type: "Convolution"
  bottom: "data"
  top: "resnet1a_bypass"
  convolution_param {
    num_output: 64
    bias_term: false
    pad: 0
    kernel_size: 1
    stride: 1
    weight_filler {
      type: "msra"
    }
  }
}
layer {
  name: "resnet1a_btlnk"
  type: "Convolution"
  bottom: "data"
  top: "resnet1a_btlnk"
  convolution_param {
    num_output: 8
    bias_term: false
    pad: 0
    kernel_size: 1
    stride: 1
    weight_filler {
      type: "msra"
    }
  }
}
layer {
  name: "resnet1a_btlnk_relu"
  type: "ReLU"
  bottom: "resnet1a_btlnk"
  top: "resnet1a_btlnk"
}
layer {
  name: "resnet1a_conv"
  type: "Convolution"
  bottom: "resnet1a_btlnk"
  top: "resnet1a_conv"
  convolution_param {
    num_output: 8
    bias_term: false
    pad: 1
    kernel_size: 3
    stride: 1
    weight_filler {
      type: "msra"
    }
  }
}
layer {
  name: "resnet1a_conv_relu"
  type: "ReLU"
  bottom: "resnet1a_conv"
  top: "resnet1a_conv"
}
layer {
  name: "resnet1a_expnd"
  type: "Convolution"
  bottom: "resnet1a_conv"
  top: "resnet1a_expnd"
  convolution_param {
    num_output: 64
    bias_term: false
    pad: 0
    kernel_size: 1
    stride: 1
    weight_filler {
      type: "msra"
    }
  }
}
layer {
  name: "resnet1a_eltwise"
  type: "Eltwise"
  bottom: "resnet1a_bypass"
  bottom: "resnet1a_expnd"
  top: "resnet1a_eltwise"
  eltwise_param {
    operation: SUM
  }
}
layer {
  name: "resnet1a_eltwise_relu"
  type: "ReLU"
  bottom: "resnet1a_eltwise"
  top: "resnet1a_eltwise"
}
layer {
  name: "resnet1b_btlnk"
  type: "Convolution"
  bottom: "resnet1a_eltwise"
  top: "resnet1b_btlnk"
  convolution_param {
    num_output: 8
    bias_term: false
    pad: 0
    kernel_size: 1
    stride: 1
    weight_filler {
      type: "msra"
    }
  }
}
layer {
  name: "resnet1b_btlnk_relu"
  type: "ReLU"
  bottom: "resnet1b_btlnk"
  top: "resnet1b_btlnk"
}
layer {
  name: "resnet1b_conv"
  type: "Convolution"
  bottom: "resnet1b_btlnk"
  top: "resnet1b_conv"
  convolution_param {
    num_output: 8
    bias_term: false
    pad: 1
    kernel_size: 3
    stride: 1
    weight_filler {
      type: "msra"
    }
  }
}
layer {
  name: "resnet1b_conv_relu"
  type: "ReLU"
  bottom: "resnet1b_conv"
  top: "resnet1b_conv"
}
layer {
  name: "resnet1b_expnd"
  type: "Convolution"
  bottom: "resnet1b_conv"
  top: "resnet1b_expnd"
  convolution_param {
    num_output: 64
    bias_term: false
    pad: 0
    kernel_size: 1
    stride: 1
    weight_filler {
      type: "msra"
    }
  }
}
layer {
  name: "resnet1b_eltwise"
  type: "Eltwise"
  bottom: "resnet1a_eltwise"
  bottom: "resnet1b_expnd"
  top: "resnet1b_eltwise"
  eltwise_param {
    operation: SUM
  }
}
layer {
  name: "resnet1b_eltwise_relu"
  type: "ReLU"
  bottom: "resnet1b_eltwise"
  top: "resnet1b_eltwise"
}
layer {
  name: "maxpool1"
  type: "Pooling"
  bottom: "resnet1b_eltwise"
  top: "maxpool1"
  pooling_param {
    pool: MAX
    kernel_size: 3
    stride: 2
    pad_h: 0
    pad_w: 0
  }
}
layer {
  name: "resnet2a_bypass"
  type: "Convolution"
  bottom: "maxpool1"
  top: "resnet2a_bypass"
  convolution_param {
    num_output: 128
    bias_term: false
    pad: 0
    kernel_size: 1
    stride: 1
    weight_filler {
      type: "msra"
    }
  }
}
layer {
  name: "resnet2a_btlnk"
  type: "Convolution"
  bottom: "maxpool1"
  top: "resnet2a_btlnk"
  convolution_param {
    num_output: 16
    bias_term: false
    pad: 0
    kernel_size: 1
    stride: 1
    weight_filler {
      type: "msra"
    }
  }
}
layer {
  name: "resnet2a_btlnk_relu"
  type: "ReLU"
  bottom: "resnet2a_btlnk"
  top: "resnet2a_btlnk"
}
layer {
  name: "resnet2a_conv"
  type: "Convolution"
  bottom: "resnet2a_btlnk"
  top: "resnet2a_conv"
  convolution_param {
    num_output: 16
    bias_term: false
    pad: 1
    kernel_size: 3
    stride: 1
    weight_filler {
      type: "msra"
    }
  }
}
layer {
  name: "resnet2a_conv_relu"
  type: "ReLU"
  bottom: "resnet2a_conv"
  top: "resnet2a_conv"
}
layer {
  name: "resnet2a_expnd"
  type: "Convolution"
  bottom: "resnet2a_conv"
  top: "resnet2a_expnd"
  convolution_param {
    num_output: 128
    bias_term: false
    pad: 0
    kernel_size: 1
    stride: 1
    weight_filler {
      type: "msra"
    }
  }
}
layer {
  name: "resnet2a_eltwise"
  type: "Eltwise"
  bottom: "resnet2a_bypass"
  bottom: "resnet2a_expnd"
  top: "resnet2a_eltwise"
  eltwise_param {
    operation: SUM
  }
}
layer {
  name: "resnet2a_eltwise_relu"
  type: "ReLU"
  bottom: "resnet2a_eltwise"
  top: "resnet2a_eltwise"
}
layer {
  name: "resnet2b_btlnk"
  type: "Convolution"
  bottom: "resnet2a_eltwise"
  top: "resnet2b_btlnk"
  convolution_param {
    num_output: 16
    bias_term: false
    pad: 0
    kernel_size: 1
    stride: 1
    weight_filler {
      type: "msra"
    }
  }
}
layer {
  name: "resnet2b_btlnk_relu"
  type: "ReLU"
  bottom: "resnet2b_btlnk"
  top: "resnet2b_btlnk"
}
layer {
  name: "resnet2b_conv"
  type: "Convolution"
  bottom: "resnet2b_btlnk"
  top: "resnet2b_conv"
  convolution_param {
    num_output: 16
    bias_term: false
    pad: 1
    kernel_size: 3
    stride: 1
    weight_filler {
      type: "msra"
    }
  }
}
layer {
  name: "resnet2b_conv_relu"
  type: "ReLU"
  bottom: "resnet2b_conv"
  top: "resnet2b_conv"
}
layer {
  name: "resnet2b_expnd"
  type: "Convolution"
  bottom: "resnet2b_conv"
  top: "resnet2b_expnd"
  convolution_param {
    num_output: 128
    bias_term: false
    pad: 0
    kernel_size: 1
    stride: 1
    weight_filler {
      type: "msra"
    }
  }
}
layer {
  name: "resnet2b_eltwise"
  type: "Eltwise"
  bottom: "resnet2a_eltwise"
  bottom: "resnet2b_expnd"
  top: "resnet2b_eltwise"
  eltwise_param {
    operation: SUM
  }
}
layer {
  name: "resnet2b_eltwise_relu"
  type: "ReLU"
  bottom: "resnet2b_eltwise"
  top: "resnet2b_eltwise"
}
layer {
  name: "maxpool2"
  type: "Pooling"
  bottom: "resnet2b_eltwise"
  top: "maxpool2"
  pooling_param {
    pool: MAX
    kernel_size: 3
    stride: 2
    pad_h: 0
    pad_w: 0
  }
}
layer {
  name: "resnet3a_bypass"
  type: "Convolution"
  bottom: "maxpool2"
  top: "resnet3a_bypass"
  convolution_param {
    num_output: 256
    bias_term: false
    pad: 0
    kernel_size: 1
    stride: 1
    weight_filler {
      type: "msra"
    }
  }
}
layer {
  name: "resnet3a_btlnk"
  type: "Convolution"
  bottom: "maxpool2"
  top: "resnet3a_btlnk"
  convolution_param {
    num_output: 32
    bias_term: false
    pad: 0
    kernel_size: 1
    stride: 1
    weight_filler {
      type: "msra"
    }
  }
}
layer {
  name: "resnet3a_btlnk_relu"
  type: "ReLU"
  bottom: "resnet3a_btlnk"
  top: "resnet3a_btlnk"
}
layer {
  name: "resnet3a_conv"
  type: "Convolution"
  bottom: "resnet3a_btlnk"
  top: "resnet3a_conv"
  convolution_param {
    num_output: 32
    bias_term: false
    pad: 1
    kernel_size: 3
    stride: 1
    weight_filler {
      type: "msra"
    }
  }
}
layer {
  name: "resnet3a_conv_relu"
  type: "ReLU"
  bottom: "resnet3a_conv"
  top: "resnet3a_conv"
}
layer {
  name: "resnet3a_expnd"
  type: "Convolution"
  bottom: "resnet3a_conv"
  top: "resnet3a_expnd"
  convolution_param {
    num_output: 256
    bias_term: false
    pad: 0
    kernel_size: 1
    stride: 1
    weight_filler {
      type: "msra"
    }
  }
}
layer {
  name: "resnet3a_eltwise"
  type: "Eltwise"
  bottom: "resnet3a_bypass"
  bottom: "resnet3a_expnd"
  top: "resnet3a_eltwise"
  eltwise_param {
    operation: SUM
  }
}
layer {
  name: "resnet3a_eltwise_relu"
  type: "ReLU"
  bottom: "resnet3a_eltwise"
  top: "resnet3a_eltwise"
}
layer {
  name: "resnet3b_btlnk"
  type: "Convolution"
  bottom: "resnet3a_eltwise"
  top: "resnet3b_btlnk"
  convolution_param {
    num_output: 32
    bias_term: false
    pad: 0
    kernel_size: 1
    stride: 1
    weight_filler {
      type: "msra"
    }
  }
}
layer {
  name: "resnet3b_btlnk_relu"
  type: "ReLU"
  bottom: "resnet3b_btlnk"
  top: "resnet3b_btlnk"
}
layer {
  name: "resnet3b_conv"
  type: "Convolution"
  bottom: "resnet3b_btlnk"
  top: "resnet3b_conv"
  convolution_param {
    num_output: 32
    bias_term: false
    pad: 1
    kernel_size: 3
    stride: 1
    weight_filler {
      type: "msra"
    }
  }
}
layer {
  name: "resnet3b_conv_relu"
  type: "ReLU"
  bottom: "resnet3b_conv"
  top: "resnet3b_conv"
}
layer {
  name: "resnet3b_expnd"
  type: "Convolution"
  bottom: "resnet3b_conv"
  top: "resnet3b_expnd"
  convolution_param {
    num_output: 256
    bias_term: false
    pad: 0
    kernel_size: 1
    stride: 1
    weight_filler {
      type: "msra"
    }
  }
}
layer {
  name: "resnet3b_eltwise"
  type: "Eltwise"
  bottom: "resnet3a_eltwise"
  bottom: "resnet3b_expnd"
  top: "resnet3b_eltwise"
  eltwise_param {
    operation: SUM
  }
}
layer {
  name: "resnet3b_eltwise_relu"
  type: "ReLU"
  bottom: "resnet3b_eltwise"
  top: "resnet3b_eltwise"
}
layer {
  name: "maxpool3"
  type: "Pooling"
  bottom: "resnet3b_eltwise"
  top: "maxpool3"
  pooling_param {
    pool: MAX
    kernel_size: 3
    stride: 2
    pad_h: 0
    pad_w: 0
  }
}
layer {
  name: "resnet4a_bypass"
  type: "Convolution"
  bottom: "maxpool3"
  top: "resnet4a_bypass"
  convolution_param {
    num_output: 512
    bias_term: false
    pad: 0
    kernel_size: 1
    stride: 1
    weight_filler {
      type: "msra"
    }
  }
}
layer {
  name: "resnet4a_btlnk"
  type: "Convolution"
  bottom: "maxpool3"
  top: "resnet4a_btlnk"
  convolution_param {
    num_output: 64
    bias_term: false
    pad: 0
    kernel_size: 1
    stride: 1
    weight_filler {
      type: "msra"
    }
  }
}
layer {
  name: "resnet4a_btlnk_relu"
  type: "ReLU"
  bottom: "resnet4a_btlnk"
  top: "resnet4a_btlnk"
}
layer {
  name: "resnet4a_conv"
  type: "Convolution"
  bottom: "resnet4a_btlnk"
  top: "resnet4a_conv"
  convolution_param {
    num_output: 64
    bias_term: false
    pad: 1
    kernel_size: 3
    stride: 1
    weight_filler {
      type: "msra"
    }
  }
}
layer {
  name: "resnet4a_conv_relu"
  type: "ReLU"
  bottom: "resnet4a_conv"
  top: "resnet4a_conv"
}
layer {
  name: "resnet4a_expnd"
  type: "Convolution"
  bottom: "resnet4a_conv"
  top: "resnet4a_expnd"
  convolution_param {
    num_output: 512
    bias_term: false
    pad: 0
    kernel_size: 1
    stride: 1
    weight_filler {
      type: "msra"
    }
  }
}
layer {
  name: "resnet4a_eltwise"
  type: "Eltwise"
  bottom: "resnet4a_bypass"
  bottom: "resnet4a_expnd"
  top: "resnet4a_eltwise"
  eltwise_param {
    operation: SUM
  }
}
layer {
  name: "resnet4a_eltwise_relu"
  type: "ReLU"
  bottom: "resnet4a_eltwise"
  top: "resnet4a_eltwise"
}
layer {
  name: "resnet4b_btlnk"
  type: "Convolution"
  bottom: "resnet4a_eltwise"
  top: "resnet4b_btlnk"
  convolution_param {
    num_output: 64
    bias_term: false
    pad: 0
    kernel_size: 1
    stride: 1
    weight_filler {
      type: "msra"
    }
  }
}
layer {
  name: "resnet4b_btlnk_relu"
  type: "ReLU"
  bottom: "resnet4b_btlnk"
  top: "resnet4b_btlnk"
}
layer {
  name: "resnet4b_conv"
  type: "Convolution"
  bottom: "resnet4b_btlnk"
  top: "resnet4b_conv"
  convolution_param {
    num_output: 64
    bias_term: false
    pad: 1
    kernel_size: 3
    stride: 1
    weight_filler {
      type: "msra"
    }
  }
}
layer {
  name: "resnet4b_conv_relu"
  type: "ReLU"
  bottom: "resnet4b_conv"
  top: "resnet4b_conv"
}
layer {
  name: "resnet4b_expnd"
  type: "Convolution"
  bottom: "resnet4b_conv"
  top: "resnet4b_expnd"
  convolution_param {
    num_output: 512
    bias_term: false
    pad: 0
    kernel_size: 1
    stride: 1
    weight_filler {
      type: "msra"
    }
  }
}
layer {
  name: "resnet4b_eltwise"
  type: "Eltwise"
  bottom: "resnet4a_eltwise"
  bottom: "resnet4b_expnd"
  top: "resnet4b_eltwise"
  eltwise_param {
    operation: SUM
  }
}
layer {
  name: "resnet4b_eltwise_relu"
  type: "ReLU"
  bottom: "resnet4b_eltwise"
  top: "resnet4b_eltwise"
}
layer {
  name: "maxpool4"
  type: "Pooling"
  bottom: "resnet4b_eltwise"
  top: "maxpool4"
  pooling_param {
    pool: MAX
    kernel_size: 3
    stride: 2
    pad_h: 0
    pad_w: 0
  }
}
layer {
  name: "resnet5a_bypass"
  type: "Convolution"
  bottom: "maxpool4"
  top: "resnet5a_bypass"
  convolution_param {
    num_output: 1024
    bias_term: false
    pad: 0
    kernel_size: 1
    stride: 1
    weight_filler {
      type: "msra"
    }
  }
}
layer {
  name: "resnet5a_btlnk"
  type: "Convolution"
  bottom: "maxpool4"
  top: "resnet5a_btlnk"
  convolution_param {
    num_output: 128
    bias_term: false
    pad: 0
    kernel_size: 1
    stride: 1
    weight_filler {
      type: "msra"
    }
  }
}
layer {
  name: "resnet5a_btlnk_relu"
  type: "ReLU"
  bottom: "resnet5a_btlnk"
  top: "resnet5a_btlnk"
}
layer {
  name: "resnet5a_conv"
  type: "Convolution"
  bottom: "resnet5a_btlnk"
  top: "resnet5a_conv"
  convolution_param {
    num_output: 128
    bias_term: false
    pad: 1
    kernel_size: 3
    stride: 1
    weight_filler {
      type: "msra"
    }
  }
}
layer {
  name: "resnet5a_conv_relu"
  type: "ReLU"
  bottom: "resnet5a_conv"
  top: "resnet5a_conv"
}
layer {
  name: "resnet5a_expnd"
  type: "Convolution"
  bottom: "resnet5a_conv"
  top: "resnet5a_expnd"
  convolution_param {
    num_output: 1024
    bias_term: false
    pad: 0
    kernel_size: 1
    stride: 1
    weight_filler {
      type: "msra"
    }
  }
}
layer {
  name: "resnet5a_eltwise"
  type: "Eltwise"
  bottom: "resnet5a_bypass"
  bottom: "resnet5a_expnd"
  top: "resnet5a_eltwise"
  eltwise_param {
    operation: SUM
  }
}
layer {
  name: "resnet5a_eltwise_relu"
  type: "ReLU"
  bottom: "resnet5a_eltwise"
  top: "resnet5a_eltwise"
}
layer {
  name: "resnet5b_btlnk"
  type: "Convolution"
  bottom: "resnet5a_eltwise"
  top: "resnet5b_btlnk"
  convolution_param {
    num_output: 128
    bias_term: false
    pad: 0
    kernel_size: 1
    stride: 1
    weight_filler {
      type: "msra"
    }
  }
}
layer {
  name: "resnet5b_btlnk_relu"
  type: "ReLU"
  bottom: "resnet5b_btlnk"
  top: "resnet5b_btlnk"
}
layer {
  name: "resnet5b_conv"
  type: "Convolution"
  bottom: "resnet5b_btlnk"
  top: "resnet5b_conv"
  convolution_param {
    num_output: 128
    bias_term: false
    pad: 1
    kernel_size: 3
    stride: 1
    weight_filler {
      type: "msra"
    }
  }
}
layer {
  name: "resnet5b_conv_relu"
  type: "ReLU"
  bottom: "resnet5b_conv"
  top: "resnet5b_conv"
}
layer {
  name: "resnet5b_expnd"
  type: "Convolution"
  bottom: "resnet5b_conv"
  top: "resnet5b_expnd"
  convolution_param {
    num_output: 1024
    bias_term: false
    pad: 0
    kernel_size: 1
    stride: 1
    weight_filler {
      type: "msra"
    }
  }
}
layer {
  name: "resnet5b_eltwise"
  type: "Eltwise"
  bottom: "resnet5a_eltwise"
  bottom: "resnet5b_expnd"
  top: "resnet5b_eltwise"
  eltwise_param {
    operation: SUM
  }
}
layer {
  name: "resnet5b_eltwise_relu"
  type: "ReLU"
  bottom: "resnet5b_eltwise"
  top: "resnet5b_eltwise"
}
layer {
  name: "unpool4"
  type: "Deconvolution"
  bottom: "resnet5b_eltwise"
  top: "unpool4"
  param {
    name: "par_unpool4_deconv_w"
    lr_mult: 1
  }
  param {
    name: "par_unpool4_conv_b"
    lr_mult: 1
  }
  convolution_param {
    num_output: 1024
    pad: 0
    kernel_size: 2
    stride: 2
    weight_filler {
      type: "msra"
    }
    bias_filler {
      type: "constant"
      value: 0
    }
  }
}
layer {
  name: "concat56_concat"
  type: "Concat"
  bottom: "resnet4b_eltwise"
  bottom: "unpool4"
  top: "concat56_concat"
  concat_param {
    axis: 1
  }
}
layer {
  name: "resnet6a_bypass"
  type: "Convolution"
  bottom: "concat56_concat"
  top: "resnet6a_bypass"
  convolution_param {
    num_output: 512
    bias_term: false
    pad: 0
    kernel_size: 1
    stride: 1
    weight_filler {
      type: "msra"
    }
  }
}
layer {
  name: "resnet6a_btlnk"
  type: "Convolution"
  bottom: "concat56_concat"
  top: "resnet6a_btlnk"
  convolution_param {
    num_output: 64
    bias_term: false
    pad: 0
    kernel_size: 1
    stride: 1
    weight_filler {
      type: "msra"
    }
  }
}
layer {
  name: "resnet6a_btlnk_relu"
  type: "ReLU"
  bottom: "resnet6a_btlnk"
  top: "resnet6a_btlnk"
}
layer {
  name: "resnet6a_conv"
  type: "Convolution"
  bottom: "resnet6a_btlnk"
  top: "resnet6a_conv"
  convolution_param {
    num_output: 64
    bias_term: false
    pad: 1
    kernel_size: 3
    stride: 1
    weight_filler {
      type: "msra"
    }
  }
}
layer {
  name: "resnet6a_conv_relu"
  type: "ReLU"
  bottom: "resnet6a_conv"
  top: "resnet6a_conv"
}
layer {
  name: "resnet6a_expnd"
  type: "Convolution"
  bottom: "resnet6a_conv"
  top: "resnet6a_expnd"
  convolution_param {
    num_output: 512
    bias_term: false
    pad: 0
    kernel_size: 1
    stride: 1
    weight_filler {
      type: "msra"
    }
  }
}
layer {
  name: "resnet6a_eltwise"
  type: "Eltwise"
  bottom: "resnet6a_bypass"
  bottom: "resnet6a_expnd"
  top: "resnet6a_eltwise"
  eltwise_param {
    operation: SUM
  }
}
layer {
  name: "resnet6a_eltwise_relu"
  type: "ReLU"
  bottom: "resnet6a_eltwise"
  top: "resnet6a_eltwise"
}
layer {
  name: "resnet6b_btlnk"
  type: "Convolution"
  bottom: "resnet6a_eltwise"
  top: "resnet6b_btlnk"
  convolution_param {
    num_output: 64
    bias_term: false
    pad: 0
    kernel_size: 1
    stride: 1
    weight_filler {
      type: "msra"
    }
  }
}
layer {
  name: "resnet6b_btlnk_relu"
  type: "ReLU"
  bottom: "resnet6b_btlnk"
  top: "resnet6b_btlnk"
}
layer {
  name: "resnet6b_conv"
  type: "Convolution"
  bottom: "resnet6b_btlnk"
  top: "resnet6b_conv"
  convolution_param {
    num_output: 64
    bias_term: false
    pad: 1
    kernel_size: 3
    stride: 1
    weight_filler {
      type: "msra"
    }
  }
}
layer {
  name: "resnet6b_conv_relu"
  type: "ReLU"
  bottom: "resnet6b_conv"
  top: "resnet6b_conv"
}
layer {
  name: "resnet6b_expnd"
  type: "Convolution"
  bottom: "resnet6b_conv"
  top: "resnet6b_expnd"
  convolution_param {
    num_output: 512
    bias_term: false
    pad: 0
    kernel_size: 1
    stride: 1
    weight_filler {
      type: "msra"
    }
  }
}
layer {
  name: "resnet6b_eltwise"
  type: "Eltwise"
  bottom: "resnet6a_eltwise"
  bottom: "resnet6b_expnd"
  top: "resnet6b_eltwise"
  eltwise_param {
    operation: SUM
  }
}
layer {
  name: "resnet6b_eltwise_relu"
  type: "ReLU"
  bottom: "resnet6b_eltwise"
  top: "resnet6b_eltwise"
}
layer {
  name: "unpool3"
  type: "Deconvolution"
  bottom: "resnet6b_eltwise"
  top: "unpool3"
  param {
    name: "par_unpool3_deconv_w"
    lr_mult: 1
  }
  param {
    name: "par_unpool3_conv_b"
    lr_mult: 1
  }
  convolution_param {
    num_output: 512
    pad: 0
    kernel_size: 2
    stride: 2
    weight_filler {
      type: "msra"
    }
    bias_filler {
      type: "constant"
      value: 0
    }
  }
}
layer {
  name: "concat37_concat"
  type: "Concat"
  bottom: "resnet3b_eltwise"
  bottom: "unpool3"
  top: "concat37_concat"
  concat_param {
    axis: 1
  }
}
layer {
  name: "resnet7a_bypass"
  type: "Convolution"
  bottom: "concat37_concat"
  top: "resnet7a_bypass"
  convolution_param {
    num_output: 256
    bias_term: false
    pad: 0
    kernel_size: 1
    stride: 1
    weight_filler {
      type: "msra"
    }
  }
}
layer {
  name: "resnet7a_btlnk"
  type: "Convolution"
  bottom: "concat37_concat"
  top: "resnet7a_btlnk"
  convolution_param {
    num_output: 32
    bias_term: false
    pad: 0
    kernel_size: 1
    stride: 1
    weight_filler {
      type: "msra"
    }
  }
}
layer {
  name: "resnet7a_btlnk_relu"
  type: "ReLU"
  bottom: "resnet7a_btlnk"
  top: "resnet7a_btlnk"
}
layer {
  name: "resnet7a_conv"
  type: "Convolution"
  bottom: "resnet7a_btlnk"
  top: "resnet7a_conv"
  convolution_param {
    num_output: 32
    bias_term: false
    pad: 1
    kernel_size: 3
    stride: 1
    weight_filler {
      type: "msra"
    }
  }
}
layer {
  name: "resnet7a_conv_relu"
  type: "ReLU"
  bottom: "resnet7a_conv"
  top: "resnet7a_conv"
}
layer {
  name: "resnet7a_expnd"
  type: "Convolution"
  bottom: "resnet7a_conv"
  top: "resnet7a_expnd"
  convolution_param {
    num_output: 256
    bias_term: false
    pad: 0
    kernel_size: 1
    stride: 1
    weight_filler {
      type: "msra"
    }
  }
}
layer {
  name: "resnet7a_eltwise"
  type: "Eltwise"
  bottom: "resnet7a_bypass"
  bottom: "resnet7a_expnd"
  top: "resnet7a_eltwise"
  eltwise_param {
    operation: SUM
  }
}
layer {
  name: "resnet7a_eltwise_relu"
  type: "ReLU"
  bottom: "resnet7a_eltwise"
  top: "resnet7a_eltwise"
}
layer {
  name: "resnet7b_btlnk"
  type: "Convolution"
  bottom: "resnet7a_eltwise"
  top: "resnet7b_btlnk"
  convolution_param {
    num_output: 32
    bias_term: false
    pad: 0
    kernel_size: 1
    stride: 1
    weight_filler {
      type: "msra"
    }
  }
}
layer {
  name: "resnet7b_btlnk_relu"
  type: "ReLU"
  bottom: "resnet7b_btlnk"
  top: "resnet7b_btlnk"
}
layer {
  name: "resnet7b_conv"
  type: "Convolution"
  bottom: "resnet7b_btlnk"
  top: "resnet7b_conv"
  convolution_param {
    num_output: 32
    bias_term: false
    pad: 1
    kernel_size: 3
    stride: 1
    weight_filler {
      type: "msra"
    }
  }
}
layer {
  name: "resnet7b_conv_relu"
  type: "ReLU"
  bottom: "resnet7b_conv"
  top: "resnet7b_conv"
}
layer {
  name: "resnet7b_expnd"
  type: "Convolution"
  bottom: "resnet7b_conv"
  top: "resnet7b_expnd"
  convolution_param {
    num_output: 256
    bias_term: false
    pad: 0
    kernel_size: 1
    stride: 1
    weight_filler {
      type: "msra"
    }
  }
}
layer {
  name: "resnet7b_eltwise"
  type: "Eltwise"
  bottom: "resnet7a_eltwise"
  bottom: "resnet7b_expnd"
  top: "resnet7b_eltwise"
  eltwise_param {
    operation: SUM
  }
}
layer {
  name: "resnet7b_eltwise_relu"
  type: "ReLU"
  bottom: "resnet7b_eltwise"
  top: "resnet7b_eltwise"
}
layer {
  name: "unpool2"
  type: "Deconvolution"
  bottom: "resnet7b_eltwise"
  top: "unpool2"
  param {
    name: "par_unpool2_deconv_w"
    lr_mult: 1
  }
  param {
    name: "par_unpool2_conv_b"
    lr_mult: 1
  }
  convolution_param {
    num_output: 128
    pad: 0
    kernel_size: 2
    stride: 2
    weight_filler {
      type: "msra"
    }
    bias_filler {
      type: "constant"
      value: 0
    }
  }
}
layer {
  name: "concat28_concat"
  type: "Concat"
  bottom: "resnet2b_eltwise"
  bottom: "unpool2"
  top: "concat28_concat"
  concat_param {
    axis: 1
  }
}
layer {
  name: "resnet8a_bypass"
  type: "Convolution"
  bottom: "concat28_concat"
  top: "resnet8a_bypass"
  convolution_param {
    num_output: 128
    bias_term: false
    pad: 0
    kernel_size: 1
    stride: 1
    weight_filler {
      type: "msra"
    }
  }
}
layer {
  name: "resnet8a_btlnk"
  type: "Convolution"
  bottom: "concat28_concat"
  top: "resnet8a_btlnk"
  convolution_param {
    num_output: 16
    bias_term: false
    pad: 0
    kernel_size: 1
    stride: 1
    weight_filler {
      type: "msra"
    }
  }
}
layer {
  name: "resnet8a_btlnk_relu"
  type: "ReLU"
  bottom: "resnet8a_btlnk"
  top: "resnet8a_btlnk"
}
layer {
  name: "resnet8a_conv"
  type: "Convolution"
  bottom: "resnet8a_btlnk"
  top: "resnet8a_conv"
  convolution_param {
    num_output: 16
    bias_term: false
    pad: 1
    kernel_size: 3
    stride: 1
    weight_filler {
      type: "msra"
    }
  }
}
layer {
  name: "resnet8a_conv_relu"
  type: "ReLU"
  bottom: "resnet8a_conv"
  top: "resnet8a_conv"
}
layer {
  name: "resnet8a_expnd"
  type: "Convolution"
  bottom: "resnet8a_conv"
  top: "resnet8a_expnd"
  convolution_param {
    num_output: 128
    bias_term: false
    pad: 0
    kernel_size: 1
    stride: 1
    weight_filler {
      type: "msra"
    }
  }
}
layer {
  name: "resnet8a_eltwise"
  type: "Eltwise"
  bottom: "resnet8a_bypass"
  bottom: "resnet8a_expnd"
  top: "resnet8a_eltwise"
  eltwise_param {
    operation: SUM
  }
}
layer {
  name: "resnet8a_eltwise_relu"
  type: "ReLU"
  bottom: "resnet8a_eltwise"
  top: "resnet8a_eltwise"
}
layer {
  name: "resnet8b_btlnk"
  type: "Convolution"
  bottom: "resnet8a_eltwise"
  top: "resnet8b_btlnk"
  convolution_param {
    num_output: 16
    bias_term: false
    pad: 0
    kernel_size: 1
    stride: 1
    weight_filler {
      type: "msra"
    }
  }
}
layer {
  name: "resnet8b_btlnk_relu"
  type: "ReLU"
  bottom: "resnet8b_btlnk"
  top: "resnet8b_btlnk"
}
layer {
  name: "resnet8b_conv"
  type: "Convolution"
  bottom: "resnet8b_btlnk"
  top: "resnet8b_conv"
  convolution_param {
    num_output: 16
    bias_term: false
    pad: 1
    kernel_size: 3
    stride: 1
    weight_filler {
      type: "msra"
    }
  }
}
layer {
  name: "resnet8b_conv_relu"
  type: "ReLU"
  bottom: "resnet8b_conv"
  top: "resnet8b_conv"
}
layer {
  name: "resnet8b_expnd"
  type: "Convolution"
  bottom: "resnet8b_conv"
  top: "resnet8b_expnd"
  convolution_param {
    num_output: 128
    bias_term: false
    pad: 0
    kernel_size: 1
    stride: 1
    weight_filler {
      type: "msra"
    }
  }
}
layer {
  name: "resnet8b_eltwise"
  type: "Eltwise"
  bottom: "resnet8a_eltwise"
  bottom: "resnet8b_expnd"
  top: "resnet8b_eltwise"
  eltwise_param {
    operation: SUM
  }
}
layer {
  name: "resnet8b_eltwise_relu"
  type: "ReLU"
  bottom: "resnet8b_eltwise"
  top: "resnet8b_eltwise"
}
layer {
  name: "unpool1"
  type: "Deconvolution"
  bottom: "resnet8b_eltwise"
  top: "unpool1"
  param {
    name: "par_unpool1_deconv_w"
    lr_mult: 1
  }
  param {
    name: "par_unpool1_conv_b"
    lr_mult: 1
  }
  convolution_param {
    num_output: 64
    pad: 0
    kernel_size: 2
    stride: 2
    weight_filler {
      type: "msra"
    }
    bias_filler {
      type: "constant"
      value: 0
    }
  }
}
layer {
  name: "concat19_concat"
  type: "Concat"
  bottom: "resnet1b_eltwise"
  bottom: "unpool1"
  top: "concat19_concat"
  concat_param {
    axis: 1
  }
}
layer {
  name: "resnet9a_bypass"
  type: "Convolution"
  bottom: "concat19_concat"
  top: "resnet9a_bypass"
  convolution_param {
    num_output: 64
    bias_term: false
    pad: 0
    kernel_size: 1
    stride: 1
    weight_filler {
      type: "msra"
    }
  }
}
layer {
  name: "resnet9a_btlnk"
  type: "Convolution"
  bottom: "concat19_concat"
  top: "resnet9a_btlnk"
  convolution_param {
    num_output: 8
    bias_term: false
    pad: 0
    kernel_size: 1
    stride: 1
    weight_filler {
      type: "msra"
    }
  }
}
layer {
  name: "resnet9a_btlnk_relu"
  type: "ReLU"
  bottom: "resnet9a_btlnk"
  top: "resnet9a_btlnk"
}
layer {
  name: "resnet9a_conv"
  type: "Convolution"
  bottom: "resnet9a_btlnk"
  top: "resnet9a_conv"
  convolution_param {
    num_output: 8
    bias_term: false
    pad: 1
    kernel_size: 3
    stride: 1
    weight_filler {
      type: "msra"
    }
  }
}
layer {
  name: "resnet9a_conv_relu"
  type: "ReLU"
  bottom: "resnet9a_conv"
  top: "resnet9a_conv"
}
layer {
  name: "resnet9a_expnd"
  type: "Convolution"
  bottom: "resnet9a_conv"
  top: "resnet9a_expnd"
  convolution_param {
    num_output: 64
    bias_term: false
    pad: 0
    kernel_size: 1
    stride: 1
    weight_filler {
      type: "msra"
    }
  }
}
layer {
  name: "resnet9a_eltwise"
  type: "Eltwise"
  bottom: "resnet9a_bypass"
  bottom: "resnet9a_expnd"
  top: "resnet9a_eltwise"
  eltwise_param {
    operation: SUM
  }
}
layer {
  name: "resnet9a_eltwise_relu"
  type: "ReLU"
  bottom: "resnet9a_eltwise"
  top: "resnet9a_eltwise"
}
layer {
  name: "resnet9b_bypass"
  type: "Convolution"
  bottom: "resnet9a_eltwise"
  top: "resnet9b_bypass"
  convolution_param {
    num_output: 64
    bias_term: false
    pad: 0
    kernel_size: 1
    stride: 1
    weight_filler {
      type: "msra"
    }
  }
}
layer {
  name: "resnet9b_btlnk"
  type: "Convolution"
  bottom: "resnet9a_eltwise"
  top: "resnet9b_btlnk"
  convolution_param {
    num_output: 8
    bias_term: false
    pad: 0
    kernel_size: 1
    stride: 1
    weight_filler {
      type: "msra"
    }
  }
}
layer {
  name: "resnet9b_btlnk_relu"
  type: "ReLU"
  bottom: "resnet9b_btlnk"
  top: "resnet9b_btlnk"
}
layer {
  name: "resnet9b_conv"
  type: "Convolution"
  bottom: "resnet9b_btlnk"
  top: "resnet9b_conv"
  convolution_param {
    num_output: 8
    bias_term: false
    pad: 1
    kernel_size: 3
    stride: 1
    weight_filler {
      type: "msra"
    }
  }
}
layer {
  name: "resnet9b_conv_relu"
  type: "ReLU"
  bottom: "resnet9b_conv"
  top: "resnet9b_conv"
}
layer {
  name: "resnet9b_expnd"
  type: "Convolution"
  bottom: "resnet9b_conv"
  top: "resnet9b_expnd"
  convolution_param {
    num_output: 64
    bias_term: false
    pad: 0
    kernel_size: 1
    stride: 1
    weight_filler {
      type: "msra"
    }
  }
}
layer {
  name: "resnet9b_eltwise"
  type: "Eltwise"
  bottom: "resnet9b_bypass"
  bottom: "resnet9b_expnd"
  top: "resnet9b_eltwise"
  eltwise_param {
    operation: SUM
  }
}
layer {
  name: "resnet9b_eltwise_relu"
  type: "ReLU"
  bottom: "resnet9b_eltwise"
  top: "resnet9b_eltwise"
}
layer {
  name: "score_conv"
  type: "Convolution"
  bottom: "resnet9b_eltwise"
  top: "score_conv"
  param {
    name: "par_score_conv_w"
    lr_mult: 1
  }
  param {
    name: "par_score_conv_b"
    lr_mult: 1
  }
  convolution_param {
    num_output: 4
    kernel_size: 1
    stride: 1
    weight_filler {
      type: "msra"
    }
    bias_filler {
      type: "constant"
      value: 0
    }
    pad_h: 0
    pad_w: 0
  }
}
layer {
  name: "score_relu"
  type: "ReLU"
  bottom: "score_conv"
  top: "score_conv"
}
layer {
  name: "crop_score"
  type: "Crop"
  bottom: "score_conv"
  bottom: "label"
  top: "crop_score"
  crop_param {
    axis: 2
    offset: 0
  }
}
layer {
  name: "softmaxloss"
  type: "SoftmaxWithLoss"
  bottom: "crop_score"
  bottom: "label"
  top: "softmaxloss"
  loss_param {
    normalize: true
    class_loss_weights: 1
    class_loss_weight
I0825 17:21:28.325078 27361 layer_factory.hpp:77] Creating layer data
I0825 17:21:28.325090 27361 net.cpp:100] Creating Layer data
I0825 17:21:28.325095 27361 net.cpp:408] data -> data
I0825 17:21:28.325117 27361 net.cpp:408] data -> label
    [95m[NORMAL][00m [0m [94m<train::configure>[00m IOManager configuration will be ignored...
…
    [95m[NORMAL][00m [0m [94m<trainIOManager::prepare_input>[00m Skipping: producer=tpc type= partroi
    [95m[NORMAL][00m [0m [94m<trainIOManager::prepare_input>[00m Skipping: producer=pmt type= image2d
    [95m[NORMAL][00m [0m [94m<trainIOManager::prepare_input>[00m Skipping: producer=segment type= image2d
    [95m[NORMAL][00m [0m [94m<trainIOManager::prepare_input>[00m Skipping: producer=tpc_hires_crop type= partroi
    [95m[NORMAL][00m [0m [94m<trainIOManager::initialize>[00m Prepared input with 9471 entries...
I0825 17:21:28.842406 27361 net.cpp:150] Setting up data
I0825 17:21:28.842470 27361 net.cpp:157] Top shape: 1 1 512 512 (262144)
I0825 17:21:28.842483 27361 net.cpp:157] Top shape: 1 1 512 512 (262144)
I0825 17:21:28.842490 27361 net.cpp:165] Memory required for data: 2097152
I0825 17:21:28.842514 27361 layer_factory.hpp:77] Creating layer data_data_0_split
I0825 17:21:28.842540 27361 net.cpp:100] Creating Layer data_data_0_split
I0825 17:21:28.842548 27361 net.cpp:434] data_data_0_split <- data
I0825 17:21:28.842568 27361 net.cpp:408] data_data_0_split -> data_data_0_split_0
I0825 17:21:28.842600 27361 net.cpp:408] data_data_0_split -> data_data_0_split_1
I0825 17:21:28.842664 27361 net.cpp:150] Setting up data_data_0_split
I0825 17:21:28.842676 27361 net.cpp:157] Top shape: 1 1 512 512 (262144)
I0825 17:21:28.842684 27361 net.cpp:157] Top shape: 1 1 512 512 (262144)
I0825 17:21:28.842692 27361 net.cpp:165] Memory required for data: 4194304
I0825 17:21:28.842700 27361 layer_factory.hpp:77] Creating layer label_data_1_split
I0825 17:21:28.842710 27361 net.cpp:100] Creating Layer label_data_1_split
I0825 17:21:28.842718 27361 net.cpp:434] label_data_1_split <- label
I0825 17:21:28.842730 27361 net.cpp:408] label_data_1_split -> label_data_1_split_0
I0825 17:21:28.842741 27361 net.cpp:408] label_data_1_split -> label_data_1_split_1
I0825 17:21:28.842752 27361 net.cpp:408] label_data_1_split -> label_data_1_split_2
I0825 17:21:28.842818 27361 net.cpp:150] Setting up label_data_1_split
I0825 17:21:28.842828 27361 net.cpp:157] Top shape: 1 1 512 512 (262144)
I0825 17:21:28.842836 27361 net.cpp:157] Top shape: 1 1 512 512 (262144)
I0825 17:21:28.842844 27361 net.cpp:157] Top shape: 1 1 512 512 (262144)
I0825 17:21:28.842851 27361 net.cpp:165] Memory required for data: 7340032
I0825 17:21:28.842859 27361 layer_factory.hpp:77] Creating layer resnet1a_bypass
I0825 17:21:28.842897 27361 net.cpp:100] Creating Layer resnet1a_bypass
I0825 17:21:28.842905 27361 net.cpp:434] resnet1a_bypass <- data_data_0_split_0
I0825 17:21:28.842916 27361 net.cpp:408] resnet1a_bypass -> resnet1a_bypass
I0825 17:21:28.843778 27361 net.cpp:150] Setting up resnet1a_bypass
I0825 17:21:28.843798 27361 net.cpp:157] Top shape: 1 64 512 512 (16777216)
I0825 17:21:28.843806 27361 net.cpp:165] Memory required for data: 74448896
I0825 17:21:28.843822 27361 layer_factory.hpp:77] Creating layer resnet1a_btlnk
I0825 17:21:28.843837 27361 net.cpp:100] Creating Layer resnet1a_btlnk
I0825 17:21:28.843844 27361 net.cpp:434] resnet1a_btlnk <- data_data_0_split_1
I0825 17:21:28.843858 27361 net.cpp:408] resnet1a_btlnk -> resnet1a_btlnk
I0825 17:21:28.844118 27361 net.cpp:150] Setting up resnet1a_btlnk
I0825 17:21:28.844132 27361 net.cpp:157] Top shape: 1 8 512 512 (2097152)
I0825 17:21:28.844139 27361 net.cpp:165] Memory required for data: 82837504
I0825 17:21:28.844152 27361 layer_factory.hpp:77] Creating layer resnet1a_btlnk_relu
I0825 17:21:28.844166 27361 net.cpp:100] Creating Layer resnet1a_btlnk_relu
I0825 17:21:28.844173 27361 net.cpp:434] resnet1a_btlnk_relu <- resnet1a_btlnk
I0825 17:21:28.844182 27361 net.cpp:395] resnet1a_btlnk_relu -> resnet1a_btlnk (in-place)
I0825 17:21:28.844194 27361 net.cpp:150] Setting up resnet1a_btlnk_relu
I0825 17:21:28.844203 27361 net.cpp:157] Top shape: 1 8 512 512 (2097152)
I0825 17:21:28.844210 27361 net.cpp:165] Memory required for data: 91226112
I0825 17:21:28.844218 27361 layer_factory.hpp:77] Creating layer resnet1a_conv
I0825 17:21:28.844231 27361 net.cpp:100] Creating Layer resnet1a_conv
I0825 17:21:28.844238 27361 net.cpp:434] resnet1a_conv <- resnet1a_btlnk
I0825 17:21:28.844250 27361 net.cpp:408] resnet1a_conv -> resnet1a_conv
I0825 17:21:28.845233 27361 net.cpp:150] Setting up resnet1a_conv
I0825 17:21:28.845257 27361 net.cpp:157] Top shape: 1 8 512 512 (2097152)
I0825 17:21:28.845265 27361 net.cpp:165] Memory required for data: 99614720
I0825 17:21:28.845279 27361 layer_factory.hpp:77] Creating layer resnet1a_conv_relu
I0825 17:21:28.845291 27361 net.cpp:100] Creating Layer resnet1a_conv_relu
I0825 17:21:28.845299 27361 net.cpp:434] resnet1a_conv_relu <- resnet1a_conv
I0825 17:21:28.845309 27361 net.cpp:395] resnet1a_conv_relu -> resnet1a_conv (in-place)
I0825 17:21:28.845321 27361 net.cpp:150] Setting up resnet1a_conv_relu
I0825 17:21:28.845331 27361 net.cpp:157] Top shape: 1 8 512 512 (2097152)
I0825 17:21:28.845345 27361 net.cpp:165] Memory required for data: 108003328
I0825 17:21:28.845355 27361 layer_factory.hpp:77] Creating layer resnet1a_expnd
I0825 17:21:28.845373 27361 net.cpp:100] Creating Layer resnet1a_expnd
I0825 17:21:28.845381 27361 net.cpp:434] resnet1a_expnd <- resnet1a_conv
I0825 17:21:28.845391 27361 net.cpp:408] resnet1a_expnd -> resnet1a_expnd
I0825 17:21:28.845692 27361 net.cpp:150] Setting up resnet1a_expnd
I0825 17:21:28.845706 27361 net.cpp:157] Top shape: 1 64 512 512 (16777216)
I0825 17:21:28.845713 27361 net.cpp:165] Memory required for data: 175112192
I0825 17:21:28.845723 27361 layer_factory.hpp:77] Creating layer resnet1a_eltwise
I0825 17:21:28.845736 27361 net.cpp:100] Creating Layer resnet1a_eltwise
I0825 17:21:28.845743 27361 net.cpp:434] resnet1a_eltwise <- resnet1a_bypass
I0825 17:21:28.845752 27361 net.cpp:434] resnet1a_eltwise <- resnet1a_expnd
I0825 17:21:28.845762 27361 net.cpp:408] resnet1a_eltwise -> resnet1a_eltwise
I0825 17:21:28.845808 27361 net.cpp:150] Setting up resnet1a_eltwise
I0825 17:21:28.845819 27361 net.cpp:157] Top shape: 1 64 512 512 (16777216)
I0825 17:21:28.845826 27361 net.cpp:165] Memory required for data: 242221056
I0825 17:21:28.845834 27361 layer_factory.hpp:77] Creating layer resnet1a_eltwise_relu
I0825 17:21:28.845844 27361 net.cpp:100] Creating Layer resnet1a_eltwise_relu
I0825 17:21:28.845850 27361 net.cpp:434] resnet1a_eltwise_relu <- resnet1a_eltwise
I0825 17:21:28.845860 27361 net.cpp:395] resnet1a_eltwise_relu -> resnet1a_eltwise (in-place)
I0825 17:21:28.845870 27361 net.cpp:150] Setting up resnet1a_eltwise_relu
I0825 17:21:28.845890 27361 net.cpp:157] Top shape: 1 64 512 512 (16777216)
I0825 17:21:28.845897 27361 net.cpp:165] Memory required for data: 309329920
I0825 17:21:28.845904 27361 layer_factory.hpp:77] Creating layer resnet1a_eltwise_resnet1a_eltwise_relu_0_split
I0825 17:21:28.845913 27361 net.cpp:100] Creating Layer resnet1a_eltwise_resnet1a_eltwise_relu_0_split
I0825 17:21:28.845921 27361 net.cpp:434] resnet1a_eltwise_resnet1a_eltwise_relu_0_split <- resnet1a_eltwise
I0825 17:21:28.845930 27361 net.cpp:408] resnet1a_eltwise_resnet1a_eltwise_relu_0_split -> resnet1a_eltwise_resnet1a_eltwise_relu_0_split_0
I0825 17:21:28.845942 27361 net.cpp:408] resnet1a_eltwise_resnet1a_eltwise_relu_0_split -> resnet1a_eltwise_resnet1a_eltwise_relu_0_split_1
I0825 17:21:28.845996 27361 net.cpp:150] Setting up resnet1a_eltwise_resnet1a_eltwise_relu_0_split
I0825 17:21:28.846009 27361 net.cpp:157] Top shape: 1 64 512 512 (16777216)
I0825 17:21:28.846017 27361 net.cpp:157] Top shape: 1 64 512 512 (16777216)
I0825 17:21:28.846024 27361 net.cpp:165] Memory required for data: 443547648
I0825 17:21:28.846032 27361 layer_factory.hpp:77] Creating layer resnet1b_btlnk
I0825 17:21:28.846048 27361 net.cpp:100] Creating Layer resnet1b_btlnk
I0825 17:21:28.846056 27361 net.cpp:434] resnet1b_btlnk <- resnet1a_eltwise_resnet1a_eltwise_relu_0_split_0
I0825 17:21:28.846068 27361 net.cpp:408] resnet1b_btlnk -> resnet1b_btlnk
I0825 17:21:28.846349 27361 net.cpp:150] Setting up resnet1b_btlnk
I0825 17:21:28.846362 27361 net.cpp:157] Top shape: 1 8 512 512 (2097152)
I0825 17:21:28.846369 27361 net.cpp:165] Memory required for data: 451936256
I0825 17:21:28.846382 27361 layer_factory.hpp:77] Creating layer resnet1b_btlnk_relu
I0825 17:21:28.846392 27361 net.cpp:100] Creating Layer resnet1b_btlnk_relu
I0825 17:21:28.846400 27361 net.cpp:434] resnet1b_btlnk_relu <- resnet1b_btlnk
I0825 17:21:28.846410 27361 net.cpp:395] resnet1b_btlnk_relu -> resnet1b_btlnk (in-place)
I0825 17:21:28.846420 27361 net.cpp:150] Setting up resnet1b_btlnk_relu
I0825 17:21:28.846428 27361 net.cpp:157] Top shape: 1 8 512 512 (2097152)
I0825 17:21:28.846436 27361 net.cpp:165] Memory required for data: 460324864
I0825 17:21:28.846442 27361 layer_factory.hpp:77] Creating layer resnet1b_conv
I0825 17:21:28.846457 27361 net.cpp:100] Creating Layer resnet1b_conv
I0825 17:21:28.846465 27361 net.cpp:434] resnet1b_conv <- resnet1b_btlnk
I0825 17:21:28.846474 27361 net.cpp:408] resnet1b_conv -> resnet1b_conv
I0825 17:21:28.846787 27361 net.cpp:150] Setting up resnet1b_conv
I0825 17:21:28.846804 27361 net.cpp:157] Top shape: 1 8 512 512 (2097152)
I0825 17:21:28.846812 27361 net.cpp:165] Memory required for data: 468713472
I0825 17:21:28.846822 27361 layer_factory.hpp:77] Creating layer resnet1b_conv_relu
I0825 17:21:28.846833 27361 net.cpp:100] Creating Layer resnet1b_conv_relu
I0825 17:21:28.846842 27361 net.cpp:434] resnet1b_conv_relu <- resnet1b_conv
I0825 17:21:28.846851 27361 net.cpp:395] resnet1b_conv_relu -> resnet1b_conv (in-place)
I0825 17:21:28.846861 27361 net.cpp:150] Setting up resnet1b_conv_relu
I0825 17:21:28.846870 27361 net.cpp:157] Top shape: 1 8 512 512 (2097152)
I0825 17:21:28.846878 27361 net.cpp:165] Memory required for data: 477102080
I0825 17:21:28.846884 27361 layer_factory.hpp:77] Creating layer resnet1b_expnd
I0825 17:21:28.846900 27361 net.cpp:100] Creating Layer resnet1b_expnd
I0825 17:21:28.846909 27361 net.cpp:434] resnet1b_expnd <- resnet1b_conv
I0825 17:21:28.846918 27361 net.cpp:408] resnet1b_expnd -> resnet1b_expnd
I0825 17:21:28.847213 27361 net.cpp:150] Setting up resnet1b_expnd
I0825 17:21:28.847226 27361 net.cpp:157] Top shape: 1 64 512 512 (16777216)
I0825 17:21:28.847234 27361 net.cpp:165] Memory required for data: 544210944
I0825 17:21:28.847244 27361 layer_factory.hpp:77] Creating layer resnet1b_eltwise
I0825 17:21:28.847255 27361 net.cpp:100] Creating Layer resnet1b_eltwise
I0825 17:21:28.847265 27361 net.cpp:434] resnet1b_eltwise <- resnet1a_eltwise_resnet1a_eltwise_relu_0_split_1
I0825 17:21:28.847273 27361 net.cpp:434] resnet1b_eltwise <- resnet1b_expnd
I0825 17:21:28.847295 27361 net.cpp:408] resnet1b_eltwise -> resnet1b_eltwise
I0825 17:21:28.847332 27361 net.cpp:150] Setting up resnet1b_eltwise
I0825 17:21:28.847344 27361 net.cpp:157] Top shape: 1 64 512 512 (16777216)
I0825 17:21:28.847352 27361 net.cpp:165] Memory required for data: 611319808
I0825 17:21:28.847358 27361 layer_factory.hpp:77] Creating layer resnet1b_eltwise_relu
I0825 17:21:28.847369 27361 net.cpp:100] Creating Layer resnet1b_eltwise_relu
I0825 17:21:28.847378 27361 net.cpp:434] resnet1b_eltwise_relu <- resnet1b_eltwise
I0825 17:21:28.847386 27361 net.cpp:395] resnet1b_eltwise_relu -> resnet1b_eltwise (in-place)
I0825 17:21:28.847396 27361 net.cpp:150] Setting up resnet1b_eltwise_relu
I0825 17:21:28.847405 27361 net.cpp:157] Top shape: 1 64 512 512 (16777216)
I0825 17:21:28.847412 27361 net.cpp:165] Memory required for data: 678428672
I0825 17:21:28.847419 27361 layer_factory.hpp:77] Creating layer resnet1b_eltwise_resnet1b_eltwise_relu_0_split
I0825 17:21:28.847429 27361 net.cpp:100] Creating Layer resnet1b_eltwise_resnet1b_eltwise_relu_0_split
I0825 17:21:28.847436 27361 net.cpp:434] resnet1b_eltwise_resnet1b_eltwise_relu_0_split <- resnet1b_eltwise
I0825 17:21:28.847445 27361 net.cpp:408] resnet1b_eltwise_resnet1b_eltwise_relu_0_split -> resnet1b_eltwise_resnet1b_eltwise_relu_0_split_0
I0825 17:21:28.847458 27361 net.cpp:408] resnet1b_eltwise_resnet1b_eltwise_relu_0_split -> resnet1b_eltwise_resnet1b_eltwise_relu_0_split_1
I0825 17:21:28.847512 27361 net.cpp:150] Setting up resnet1b_eltwise_resnet1b_eltwise_relu_0_split
I0825 17:21:28.847522 27361 net.cpp:157] Top shape: 1 64 512 512 (16777216)
I0825 17:21:28.847530 27361 net.cpp:157] Top shape: 1 64 512 512 (16777216)
I0825 17:21:28.847537 27361 net.cpp:165] Memory required for data: 812646400
I0825 17:21:28.847546 27361 layer_factory.hpp:77] Creating layer maxpool1
I0825 17:21:28.847563 27361 net.cpp:100] Creating Layer maxpool1
I0825 17:21:28.847573 27361 net.cpp:434] maxpool1 <- resnet1b_eltwise_resnet1b_eltwise_relu_0_split_0
I0825 17:21:28.847581 27361 net.cpp:408] maxpool1 -> maxpool1
I0825 17:21:28.847642 27361 net.cpp:150] Setting up maxpool1
I0825 17:21:28.847654 27361 net.cpp:157] Top shape: 1 64 256 256 (4194304)
I0825 17:21:28.847661 27361 net.cpp:165] Memory required for data: 829423616
I0825 17:21:28.847668 27361 layer_factory.hpp:77] Creating layer maxpool1_maxpool1_0_split
I0825 17:21:28.847677 27361 net.cpp:100] Creating Layer maxpool1_maxpool1_0_split
I0825 17:21:28.847690 27361 net.cpp:434] maxpool1_maxpool1_0_split <- maxpool1
I0825 17:21:28.847702 27361 net.cpp:408] maxpool1_maxpool1_0_split -> maxpool1_maxpool1_0_split_0
I0825 17:21:28.847714 27361 net.cpp:408] maxpool1_maxpool1_0_split -> maxpool1_maxpool1_0_split_1
I0825 17:21:28.847764 27361 net.cpp:150] Setting up maxpool1_maxpool1_0_split
I0825 17:21:28.847774 27361 net.cpp:157] Top shape: 1 64 256 256 (4194304)
I0825 17:21:28.847784 27361 net.cpp:157] Top shape: 1 64 256 256 (4194304)
I0825 17:21:28.847790 27361 net.cpp:165] Memory required for data: 862978048
I0825 17:21:28.847796 27361 layer_factory.hpp:77] Creating layer resnet2a_bypass
I0825 17:21:28.847811 27361 net.cpp:100] Creating Layer resnet2a_bypass
I0825 17:21:28.847820 27361 net.cpp:434] resnet2a_bypass <- maxpool1_maxpool1_0_split_0
I0825 17:21:28.847831 27361 net.cpp:408] resnet2a_bypass -> resnet2a_bypass
I0825 17:21:28.849239 27361 net.cpp:150] Setting up resnet2a_bypass
I0825 17:21:28.849264 27361 net.cpp:157] Top shape: 1 128 256 256 (8388608)
I0825 17:21:28.849272 27361 net.cpp:165] Memory required for data: 896532480
I0825 17:21:28.849282 27361 layer_factory.hpp:77] Creating layer resnet2a_btlnk
I0825 17:21:28.849301 27361 net.cpp:100] Creating Layer resnet2a_btlnk
I0825 17:21:28.849310 27361 net.cpp:434] resnet2a_btlnk <- maxpool1_maxpool1_0_split_1
I0825 17:21:28.849321 27361 net.cpp:408] resnet2a_btlnk -> resnet2a_btlnk
I0825 17:21:28.849642 27361 net.cpp:150] Setting up resnet2a_btlnk
I0825 17:21:28.849656 27361 net.cpp:157] Top shape: 1 16 256 256 (1048576)
I0825 17:21:28.849675 27361 net.cpp:165] Memory required for data: 900726784
I0825 17:21:28.849691 27361 layer_factory.hpp:77] Creating layer resnet2a_btlnk_relu
I0825 17:21:28.849702 27361 net.cpp:100] Creating Layer resnet2a_btlnk_relu
I0825 17:21:28.849710 27361 net.cpp:434] resnet2a_btlnk_relu <- resnet2a_btlnk
I0825 17:21:28.849720 27361 net.cpp:395] resnet2a_btlnk_relu -> resnet2a_btlnk (in-place)
I0825 17:21:28.849732 27361 net.cpp:150] Setting up resnet2a_btlnk_relu
I0825 17:21:28.849741 27361 net.cpp:157] Top shape: 1 16 256 256 (1048576)
I0825 17:21:28.849748 27361 net.cpp:165] Memory required for data: 904921088
I0825 17:21:28.849756 27361 layer_factory.hpp:77] Creating layer resnet2a_conv
I0825 17:21:28.849768 27361 net.cpp:100] Creating Layer resnet2a_conv
I0825 17:21:28.849776 27361 net.cpp:434] resnet2a_conv <- resnet2a_btlnk
I0825 17:21:28.849789 27361 net.cpp:408] resnet2a_conv -> resnet2a_conv
I0825 17:21:28.850883 27361 net.cpp:150] Setting up resnet2a_conv
I0825 17:21:28.850909 27361 net.cpp:157] Top shape: 1 16 256 256 (1048576)
I0825 17:21:28.850917 27361 net.cpp:165] Memory required for data: 909115392
I0825 17:21:28.850927 27361 layer_factory.hpp:77] Creating layer resnet2a_conv_relu
I0825 17:21:28.850940 27361 net.cpp:100] Creating Layer resnet2a_conv_relu
I0825 17:21:28.850950 27361 net.cpp:434] resnet2a_conv_relu <- resnet2a_conv
I0825 17:21:28.850960 27361 net.cpp:395] resnet2a_conv_relu -> resnet2a_conv (in-place)
I0825 17:21:28.850971 27361 net.cpp:150] Setting up resnet2a_conv_relu
I0825 17:21:28.850980 27361 net.cpp:157] Top shape: 1 16 256 256 (1048576)
I0825 17:21:28.850999 27361 net.cpp:165] Memory required for data: 913309696
I0825 17:21:28.851006 27361 layer_factory.hpp:77] Creating layer resnet2a_expnd
I0825 17:21:28.851022 27361 net.cpp:100] Creating Layer resnet2a_expnd
I0825 17:21:28.851028 27361 net.cpp:434] resnet2a_expnd <- resnet2a_conv
I0825 17:21:28.851038 27361 net.cpp:408] resnet2a_expnd -> resnet2a_expnd
I0825 17:21:28.851394 27361 net.cpp:150] Setting up resnet2a_expnd
I0825 17:21:28.851408 27361 net.cpp:157] Top shape: 1 128 256 256 (8388608)
I0825 17:21:28.851414 27361 net.cpp:165] Memory required for data: 946864128
I0825 17:21:28.851424 27361 layer_factory.hpp:77] Creating layer resnet2a_eltwise
I0825 17:21:28.851435 27361 net.cpp:100] Creating Layer resnet2a_eltwise
I0825 17:21:28.851443 27361 net.cpp:434] resnet2a_eltwise <- resnet2a_bypass
I0825 17:21:28.851451 27361 net.cpp:434] resnet2a_eltwise <- resnet2a_expnd
I0825 17:21:28.851471 27361 net.cpp:408] resnet2a_eltwise -> resnet2a_eltwise
I0825 17:21:28.851526 27361 net.cpp:150] Setting up resnet2a_eltwise
I0825 17:21:28.851537 27361 net.cpp:157] Top shape: 1 128 256 256 (8388608)
I0825 17:21:28.851543 27361 net.cpp:165] Memory required for data: 980418560
I0825 17:21:28.851550 27361 layer_factory.hpp:77] Creating layer resnet2a_eltwise_relu
I0825 17:21:28.851559 27361 net.cpp:100] Creating Layer resnet2a_eltwise_relu
I0825 17:21:28.851567 27361 net.cpp:434] resnet2a_eltwise_relu <- resnet2a_eltwise
I0825 17:21:28.851575 27361 net.cpp:395] resnet2a_eltwise_relu -> resnet2a_eltwise (in-place)
I0825 17:21:28.851584 27361 net.cpp:150] Setting up resnet2a_eltwise_relu
I0825 17:21:28.851593 27361 net.cpp:157] Top shape: 1 128 256 256 (8388608)
I0825 17:21:28.851599 27361 net.cpp:165] Memory required for data: 1013972992
I0825 17:21:28.851606 27361 layer_factory.hpp:77] Creating layer resnet2a_eltwise_resnet2a_eltwise_relu_0_split
I0825 17:21:28.851615 27361 net.cpp:100] Creating Layer resnet2a_eltwise_resnet2a_eltwise_relu_0_split
I0825 17:21:28.851622 27361 net.cpp:434] resnet2a_eltwise_resnet2a_eltwise_relu_0_split <- resnet2a_eltwise
I0825 17:21:28.851630 27361 net.cpp:408] resnet2a_eltwise_resnet2a_eltwise_relu_0_split -> resnet2a_eltwise_resnet2a_eltwise_relu_0_split_0
I0825 17:21:28.851641 27361 net.cpp:408] resnet2a_eltwise_resnet2a_eltwise_relu_0_split -> resnet2a_eltwise_resnet2a_eltwise_relu_0_split_1
I0825 17:21:28.851691 27361 net.cpp:150] Setting up resnet2a_eltwise_resnet2a_eltwise_relu_0_split
I0825 17:21:28.851702 27361 net.cpp:157] Top shape: 1 128 256 256 (8388608)
I0825 17:21:28.851721 27361 net.cpp:157] Top shape: 1 128 256 256 (8388608)
I0825 17:21:28.851727 27361 net.cpp:165] Memory required for data: 1081081856
I0825 17:21:28.851734 27361 layer_factory.hpp:77] Creating layer resnet2b_btlnk
I0825 17:21:28.851753 27361 net.cpp:100] Creating Layer resnet2b_btlnk
I0825 17:21:28.851761 27361 net.cpp:434] resnet2b_btlnk <- resnet2a_eltwise_resnet2a_eltwise_relu_0_split_0
I0825 17:21:28.851773 27361 net.cpp:408] resnet2b_btlnk -> resnet2b_btlnk
I0825 17:21:28.852128 27361 net.cpp:150] Setting up resnet2b_btlnk
I0825 17:21:28.852141 27361 net.cpp:157] Top shape: 1 16 256 256 (1048576)
I0825 17:21:28.852149 27361 net.cpp:165] Memory required for data: 1085276160
I0825 17:21:28.852159 27361 layer_factory.hpp:77] Creating layer resnet2b_btlnk_relu
I0825 17:21:28.852170 27361 net.cpp:100] Creating Layer resnet2b_btlnk_relu
I0825 17:21:28.852177 27361 net.cpp:434] resnet2b_btlnk_relu <- resnet2b_btlnk
I0825 17:21:28.852186 27361 net.cpp:395] resnet2b_btlnk_relu -> resnet2b_btlnk (in-place)
I0825 17:21:28.852197 27361 net.cpp:150] Setting up resnet2b_btlnk_relu
I0825 17:21:28.852205 27361 net.cpp:157] Top shape: 1 16 256 256 (1048576)
I0825 17:21:28.852212 27361 net.cpp:165] Memory required for data: 1089470464
I0825 17:21:28.852218 27361 layer_factory.hpp:77] Creating layer resnet2b_conv
I0825 17:21:28.852232 27361 net.cpp:100] Creating Layer resnet2b_conv
I0825 17:21:28.852241 27361 net.cpp:434] resnet2b_conv <- resnet2b_btlnk
I0825 17:21:28.852249 27361 net.cpp:408] resnet2b_conv -> resnet2b_conv
I0825 17:21:28.852618 27361 net.cpp:150] Setting up resnet2b_conv
I0825 17:21:28.852632 27361 net.cpp:157] Top shape: 1 16 256 256 (1048576)
I0825 17:21:28.852638 27361 net.cpp:165] Memory required for data: 1093664768
I0825 17:21:28.852648 27361 layer_factory.hpp:77] Creating layer resnet2b_conv_relu
I0825 17:21:28.852658 27361 net.cpp:100] Creating Layer resnet2b_conv_relu
I0825 17:21:28.852666 27361 net.cpp:434] resnet2b_conv_relu <- resnet2b_conv
I0825 17:21:28.852675 27361 net.cpp:395] resnet2b_conv_relu -> resnet2b_conv (in-place)
I0825 17:21:28.852684 27361 net.cpp:150] Setting up resnet2b_conv_relu
I0825 17:21:28.852692 27361 net.cpp:157] Top shape: 1 16 256 256 (1048576)
I0825 17:21:28.852699 27361 net.cpp:165] Memory required for data: 1097859072
I0825 17:21:28.852706 27361 layer_factory.hpp:77] Creating layer resnet2b_expnd
I0825 17:21:28.852720 27361 net.cpp:100] Creating Layer resnet2b_expnd
I0825 17:21:28.852732 27361 net.cpp:434] resnet2b_expnd <- resnet2b_conv
I0825 17:21:28.852742 27361 net.cpp:408] resnet2b_expnd -> resnet2b_expnd
I0825 17:21:28.853094 27361 net.cpp:150] Setting up resnet2b_expnd
I0825 17:21:28.853108 27361 net.cpp:157] Top shape: 1 128 256 256 (8388608)
I0825 17:21:28.853116 27361 net.cpp:165] Memory required for data: 1131413504
I0825 17:21:28.853126 27361 layer_factory.hpp:77] Creating layer resnet2b_eltwise
I0825 17:21:28.853137 27361 net.cpp:100] Creating Layer resnet2b_eltwise
I0825 17:21:28.853143 27361 net.cpp:434] resnet2b_eltwise <- resnet2a_eltwise_resnet2a_eltwise_relu_0_split_1
I0825 17:21:28.853152 27361 net.cpp:434] resnet2b_eltwise <- resnet2b_expnd
I0825 17:21:28.853162 27361 net.cpp:408] resnet2b_eltwise -> resnet2b_eltwise
I0825 17:21:28.853194 27361 net.cpp:150] Setting up resnet2b_eltwise
I0825 17:21:28.853204 27361 net.cpp:157] Top shape: 1 128 256 256 (8388608)
I0825 17:21:28.853211 27361 net.cpp:165] Memory required for data: 1164967936
I0825 17:21:28.853217 27361 layer_factory.hpp:77] Creating layer resnet2b_eltwise_relu
I0825 17:21:28.853229 27361 net.cpp:100] Creating Layer resnet2b_eltwise_relu
I0825 17:21:28.853236 27361 net.cpp:434] resnet2b_eltwise_relu <- resnet2b_eltwise
I0825 17:21:28.853245 27361 net.cpp:395] resnet2b_eltwise_relu -> resnet2b_eltwise (in-place)
I0825 17:21:28.853253 27361 net.cpp:150] Setting up resnet2b_eltwise_relu
I0825 17:21:28.853262 27361 net.cpp:157] Top shape: 1 128 256 256 (8388608)
I0825 17:21:28.853268 27361 net.cpp:165] Memory required for data: 1198522368
I0825 17:21:28.853284 27361 layer_factory.hpp:77] Creating layer resnet2b_eltwise_resnet2b_eltwise_relu_0_split
I0825 17:21:28.853294 27361 net.cpp:100] Creating Layer resnet2b_eltwise_resnet2b_eltwise_relu_0_split
I0825 17:21:28.853302 27361 net.cpp:434] resnet2b_eltwise_resnet2b_eltwise_relu_0_split <- resnet2b_eltwise
I0825 17:21:28.853309 27361 net.cpp:408] resnet2b_eltwise_resnet2b_eltwise_relu_0_split -> resnet2b_eltwise_resnet2b_eltwise_relu_0_split_0
I0825 17:21:28.853319 27361 net.cpp:408] resnet2b_eltwise_resnet2b_eltwise_relu_0_split -> resnet2b_eltwise_resnet2b_eltwise_relu_0_split_1
I0825 17:21:28.853371 27361 net.cpp:150] Setting up resnet2b_eltwise_resnet2b_eltwise_relu_0_split
I0825 17:21:28.853381 27361 net.cpp:157] Top shape: 1 128 256 256 (8388608)
I0825 17:21:28.853390 27361 net.cpp:157] Top shape: 1 128 256 256 (8388608)
I0825 17:21:28.853396 27361 net.cpp:165] Memory required for data: 1265631232
I0825 17:21:28.853404 27361 layer_factory.hpp:77] Creating layer maxpool2
I0825 17:21:28.853415 27361 net.cpp:100] Creating Layer maxpool2
I0825 17:21:28.853422 27361 net.cpp:434] maxpool2 <- resnet2b_eltwise_resnet2b_eltwise_relu_0_split_0
I0825 17:21:28.853432 27361 net.cpp:408] maxpool2 -> maxpool2
I0825 17:21:28.853487 27361 net.cpp:150] Setting up maxpool2
I0825 17:21:28.853497 27361 net.cpp:157] Top shape: 1 128 128 128 (2097152)
I0825 17:21:28.853503 27361 net.cpp:165] Memory required for data: 1274019840
I0825 17:21:28.853512 27361 layer_factory.hpp:77] Creating layer maxpool2_maxpool2_0_split
I0825 17:21:28.853520 27361 net.cpp:100] Creating Layer maxpool2_maxpool2_0_split
I0825 17:21:28.853528 27361 net.cpp:434] maxpool2_maxpool2_0_split <- maxpool2
I0825 17:21:28.853538 27361 net.cpp:408] maxpool2_maxpool2_0_split -> maxpool2_maxpool2_0_split_0
I0825 17:21:28.853549 27361 net.cpp:408] maxpool2_maxpool2_0_split -> maxpool2_maxpool2_0_split_1
I0825 17:21:28.853595 27361 net.cpp:150] Setting up maxpool2_maxpool2_0_split
I0825 17:21:28.853605 27361 net.cpp:157] Top shape: 1 128 128 128 (2097152)
I0825 17:21:28.853613 27361 net.cpp:157] Top shape: 1 128 128 128 (2097152)
I0825 17:21:28.853620 27361 net.cpp:165] Memory required for data: 1290797056
I0825 17:21:28.853626 27361 layer_factory.hpp:77] Creating layer resnet3a_bypass
I0825 17:21:28.853637 27361 net.cpp:100] Creating Layer resnet3a_bypass
I0825 17:21:28.853644 27361 net.cpp:434] resnet3a_bypass <- maxpool2_maxpool2_0_split_0
I0825 17:21:28.853662 27361 net.cpp:408] resnet3a_bypass -> resnet3a_bypass
I0825 17:21:28.856333 27361 net.cpp:150] Setting up resnet3a_bypass
I0825 17:21:28.856360 27361 net.cpp:157] Top shape: 1 256 128 128 (4194304)
I0825 17:21:28.856369 27361 net.cpp:165] Memory required for data: 1307574272
I0825 17:21:28.856379 27361 layer_factory.hpp:77] Creating layer resnet3a_btlnk
I0825 17:21:28.856395 27361 net.cpp:100] Creating Layer resnet3a_btlnk
I0825 17:21:28.856402 27361 net.cpp:434] resnet3a_btlnk <- maxpool2_maxpool2_0_split_1
I0825 17:21:28.856427 27361 net.cpp:408] resnet3a_btlnk -> resnet3a_btlnk
I0825 17:21:28.856901 27361 net.cpp:150] Setting up resnet3a_btlnk
I0825 17:21:28.856915 27361 net.cpp:157] Top shape: 1 32 128 128 (524288)
I0825 17:21:28.856922 27361 net.cpp:165] Memory required for data: 1309671424
I0825 17:21:28.856931 27361 layer_factory.hpp:77] Creating layer resnet3a_btlnk_relu
I0825 17:21:28.856943 27361 net.cpp:100] Creating Layer resnet3a_btlnk_relu
I0825 17:21:28.856951 27361 net.cpp:434] resnet3a_btlnk_relu <- resnet3a_btlnk
I0825 17:21:28.856961 27361 net.cpp:395] resnet3a_btlnk_relu -> resnet3a_btlnk (in-place)
I0825 17:21:28.856971 27361 net.cpp:150] Setting up resnet3a_btlnk_relu
I0825 17:21:28.856979 27361 net.cpp:157] Top shape: 1 32 128 128 (524288)
I0825 17:21:28.856986 27361 net.cpp:165] Memory required for data: 1311768576
I0825 17:21:28.856994 27361 layer_factory.hpp:77] Creating layer resnet3a_conv
I0825 17:21:28.857007 27361 net.cpp:100] Creating Layer resnet3a_conv
I0825 17:21:28.857013 27361 net.cpp:434] resnet3a_conv <- resnet3a_btlnk
I0825 17:21:28.857025 27361 net.cpp:408] resnet3a_conv -> resnet3a_conv
I0825 17:21:28.857787 27361 net.cpp:150] Setting up resnet3a_conv
I0825 17:21:28.857801 27361 net.cpp:157] Top shape: 1 32 128 128 (524288)
I0825 17:21:28.857808 27361 net.cpp:165] Memory required for data: 1313865728
I0825 17:21:28.857822 27361 layer_factory.hpp:77] Creating layer resnet3a_conv_relu
I0825 17:21:28.857834 27361 net.cpp:100] Creating Layer resnet3a_conv_relu
I0825 17:21:28.857842 27361 net.cpp:434] resnet3a_conv_relu <- resnet3a_conv
I0825 17:21:28.857851 27361 net.cpp:395] resnet3a_conv_relu -> resnet3a_conv (in-place)
I0825 17:21:28.857861 27361 net.cpp:150] Setting up resnet3a_conv_relu
I0825 17:21:28.857870 27361 net.cpp:157] Top shape: 1 32 128 128 (524288)
I0825 17:21:28.857877 27361 net.cpp:165] Memory required for data: 1315962880
I0825 17:21:28.857884 27361 layer_factory.hpp:77] Creating layer resnet3a_expnd
I0825 17:21:28.857897 27361 net.cpp:100] Creating Layer resnet3a_expnd
I0825 17:21:28.857903 27361 net.cpp:434] resnet3a_expnd <- resnet3a_conv
I0825 17:21:28.857914 27361 net.cpp:408] resnet3a_expnd -> resnet3a_expnd
I0825 17:21:28.858605 27361 net.cpp:150] Setting up resnet3a_expnd
I0825 17:21:28.858621 27361 net.cpp:157] Top shape: 1 256 128 128 (4194304)
I0825 17:21:28.858628 27361 net.cpp:165] Memory required for data: 1332740096
I0825 17:21:28.858638 27361 layer_factory.hpp:77] Creating layer resnet3a_eltwise
I0825 17:21:28.858649 27361 net.cpp:100] Creating Layer resnet3a_eltwise
I0825 17:21:28.858657 27361 net.cpp:434] resnet3a_eltwise <- resnet3a_bypass
I0825 17:21:28.858666 27361 net.cpp:434] resnet3a_eltwise <- resnet3a_expnd
I0825 17:21:28.858676 27361 net.cpp:408] resnet3a_eltwise -> resnet3a_eltwise
I0825 17:21:28.858710 27361 net.cpp:150] Setting up resnet3a_eltwise
I0825 17:21:28.858719 27361 net.cpp:157] Top shape: 1 256 128 128 (4194304)
I0825 17:21:28.858726 27361 net.cpp:165] Memory required for data: 1349517312
I0825 17:21:28.858734 27361 layer_factory.hpp:77] Creating layer resnet3a_eltwise_relu
I0825 17:21:28.858744 27361 net.cpp:100] Creating Layer resnet3a_eltwise_relu
I0825 17:21:28.858752 27361 net.cpp:434] resnet3a_eltwise_relu <- resnet3a_eltwise
I0825 17:21:28.858764 27361 net.cpp:395] resnet3a_eltwise_relu -> resnet3a_eltwise (in-place)
I0825 17:21:28.858774 27361 net.cpp:150] Setting up resnet3a_eltwise_relu
I0825 17:21:28.858783 27361 net.cpp:157] Top shape: 1 256 128 128 (4194304)
I0825 17:21:28.858789 27361 net.cpp:165] Memory required for data: 1366294528
I0825 17:21:28.858801 27361 layer_factory.hpp:77] Creating layer resnet3a_eltwise_resnet3a_eltwise_relu_0_split
I0825 17:21:28.858811 27361 net.cpp:100] Creating Layer resnet3a_eltwise_resnet3a_eltwise_relu_0_split
I0825 17:21:28.858819 27361 net.cpp:434] resnet3a_eltwise_resnet3a_eltwise_relu_0_split <- resnet3a_eltwise
I0825 17:21:28.858827 27361 net.cpp:408] resnet3a_eltwise_resnet3a_eltwise_relu_0_split -> resnet3a_eltwise_resnet3a_eltwise_relu_0_split_0
I0825 17:21:28.858837 27361 net.cpp:408] resnet3a_eltwise_resnet3a_eltwise_relu_0_split -> resnet3a_eltwise_resnet3a_eltwise_relu_0_split_1
I0825 17:21:28.858887 27361 net.cpp:150] Setting up resnet3a_eltwise_resnet3a_eltwise_relu_0_split
I0825 17:21:28.858897 27361 net.cpp:157] Top shape: 1 256 128 128 (4194304)
I0825 17:21:28.858906 27361 net.cpp:157] Top shape: 1 256 128 128 (4194304)
I0825 17:21:28.858912 27361 net.cpp:165] Memory required for data: 1399848960
I0825 17:21:28.858919 27361 layer_factory.hpp:77] Creating layer resnet3b_btlnk
I0825 17:21:28.858933 27361 net.cpp:100] Creating Layer resnet3b_btlnk
I0825 17:21:28.858942 27361 net.cpp:434] resnet3b_btlnk <- resnet3a_eltwise_resnet3a_eltwise_relu_0_split_0
I0825 17:21:28.858953 27361 net.cpp:408] resnet3b_btlnk -> resnet3b_btlnk
I0825 17:21:28.859632 27361 net.cpp:150] Setting up resnet3b_btlnk
I0825 17:21:28.859647 27361 net.cpp:157] Top shape: 1 32 128 128 (524288)
I0825 17:21:28.859652 27361 net.cpp:165] Memory required for data: 1401946112
I0825 17:21:28.859661 27361 layer_factory.hpp:77] Creating layer resnet3b_btlnk_relu
I0825 17:21:28.859673 27361 net.cpp:100] Creating Layer resnet3b_btlnk_relu
I0825 17:21:28.859691 27361 net.cpp:434] resnet3b_btlnk_relu <- resnet3b_btlnk
I0825 17:21:28.859700 27361 net.cpp:395] resnet3b_btlnk_relu -> resnet3b_btlnk (in-place)
I0825 17:21:28.859711 27361 net.cpp:150] Setting up resnet3b_btlnk_relu
I0825 17:21:28.859719 27361 net.cpp:157] Top shape: 1 32 128 128 (524288)
I0825 17:21:28.859726 27361 net.cpp:165] Memory required for data: 1404043264
I0825 17:21:28.859735 27361 layer_factory.hpp:77] Creating layer resnet3b_conv
I0825 17:21:28.859746 27361 net.cpp:100] Creating Layer resnet3b_conv
I0825 17:21:28.859753 27361 net.cpp:434] resnet3b_conv <- resnet3b_btlnk
I0825 17:21:28.859763 27361 net.cpp:408] resnet3b_conv -> resnet3b_conv
I0825 17:21:28.860509 27361 net.cpp:150] Setting up resnet3b_conv
I0825 17:21:28.860523 27361 net.cpp:157] Top shape: 1 32 128 128 (524288)
I0825 17:21:28.860530 27361 net.cpp:165] Memory required for data: 1406140416
I0825 17:21:28.860539 27361 layer_factory.hpp:77] Creating layer resnet3b_conv_relu
I0825 17:21:28.860550 27361 net.cpp:100] Creating Layer resnet3b_conv_relu
I0825 17:21:28.860558 27361 net.cpp:434] resnet3b_conv_relu <- resnet3b_conv
I0825 17:21:28.860569 27361 net.cpp:395] resnet3b_conv_relu -> resnet3b_conv (in-place)
I0825 17:21:28.860579 27361 net.cpp:150] Setting up resnet3b_conv_relu
I0825 17:21:28.860587 27361 net.cpp:157] Top shape: 1 32 128 128 (524288)
I0825 17:21:28.860594 27361 net.cpp:165] Memory required for data: 1408237568
I0825 17:21:28.860600 27361 layer_factory.hpp:77] Creating layer resnet3b_expnd
I0825 17:21:28.860611 27361 net.cpp:100] Creating Layer resnet3b_expnd
I0825 17:21:28.860618 27361 net.cpp:434] resnet3b_expnd <- resnet3b_conv
I0825 17:21:28.860630 27361 net.cpp:408] resnet3b_expnd -> resnet3b_expnd
I0825 17:21:28.861316 27361 net.cpp:150] Setting up resnet3b_expnd
I0825 17:21:28.861330 27361 net.cpp:157] Top shape: 1 256 128 128 (4194304)
I0825 17:21:28.861336 27361 net.cpp:165] Memory required for data: 1425014784
I0825 17:21:28.861344 27361 layer_factory.hpp:77] Creating layer resnet3b_eltwise
I0825 17:21:28.861356 27361 net.cpp:100] Creating Layer resnet3b_eltwise
I0825 17:21:28.861364 27361 net.cpp:434] resnet3b_eltwise <- resnet3a_eltwise_resnet3a_eltwise_relu_0_split_1
I0825 17:21:28.861372 27361 net.cpp:434] resnet3b_eltwise <- resnet3b_expnd
I0825 17:21:28.861382 27361 net.cpp:408] resnet3b_eltwise -> resnet3b_eltwise
I0825 17:21:28.861433 27361 net.cpp:150] Setting up resnet3b_eltwise
I0825 17:21:28.861449 27361 net.cpp:157] Top shape: 1 256 128 128 (4194304)
I0825 17:21:28.861454 27361 net.cpp:165] Memory required for data: 1441792000
I0825 17:21:28.861464 27361 layer_factory.hpp:77] Creating layer resnet3b_eltwise_relu
I0825 17:21:28.861472 27361 net.cpp:100] Creating Layer resnet3b_eltwise_relu
I0825 17:21:28.861479 27361 net.cpp:434] resnet3b_eltwise_relu <- resnet3b_eltwise
I0825 17:21:28.861488 27361 net.cpp:395] resnet3b_eltwise_relu -> resnet3b_eltwise (in-place)
I0825 17:21:28.861497 27361 net.cpp:150] Setting up resnet3b_eltwise_relu
I0825 17:21:28.861506 27361 net.cpp:157] Top shape: 1 256 128 128 (4194304)
I0825 17:21:28.861512 27361 net.cpp:165] Memory required for data: 1458569216
I0825 17:21:28.861520 27361 layer_factory.hpp:77] Creating layer resnet3b_eltwise_resnet3b_eltwise_relu_0_split
I0825 17:21:28.861529 27361 net.cpp:100] Creating Layer resnet3b_eltwise_resnet3b_eltwise_relu_0_split
I0825 17:21:28.861536 27361 net.cpp:434] resnet3b_eltwise_resnet3b_eltwise_relu_0_split <- resnet3b_eltwise
I0825 17:21:28.861546 27361 net.cpp:408] resnet3b_eltwise_resnet3b_eltwise_relu_0_split -> resnet3b_eltwise_resnet3b_eltwise_relu_0_split_0
I0825 17:21:28.861557 27361 net.cpp:408] resnet3b_eltwise_resnet3b_eltwise_relu_0_split -> resnet3b_eltwise_resnet3b_eltwise_relu_0_split_1
I0825 17:21:28.861605 27361 net.cpp:150] Setting up resnet3b_eltwise_resnet3b_eltwise_relu_0_split
I0825 17:21:28.861615 27361 net.cpp:157] Top shape: 1 256 128 128 (4194304)
I0825 17:21:28.861624 27361 net.cpp:157] Top shape: 1 256 128 128 (4194304)
I0825 17:21:28.861639 27361 net.cpp:165] Memory required for data: 1492123648
I0825 17:21:28.861646 27361 layer_factory.hpp:77] Creating layer maxpool3
I0825 17:21:28.861660 27361 net.cpp:100] Creating Layer maxpool3
I0825 17:21:28.861668 27361 net.cpp:434] maxpool3 <- resnet3b_eltwise_resnet3b_eltwise_relu_0_split_0
I0825 17:21:28.861680 27361 net.cpp:408] maxpool3 -> maxpool3
I0825 17:21:28.861729 27361 net.cpp:150] Setting up maxpool3
I0825 17:21:28.861739 27361 net.cpp:157] Top shape: 1 256 64 64 (1048576)
I0825 17:21:28.861747 27361 net.cpp:165] Memory required for data: 1496317952
I0825 17:21:28.861753 27361 layer_factory.hpp:77] Creating layer maxpool3_maxpool3_0_split
I0825 17:21:28.861763 27361 net.cpp:100] Creating Layer maxpool3_maxpool3_0_split
I0825 17:21:28.861771 27361 net.cpp:434] maxpool3_maxpool3_0_split <- maxpool3
I0825 17:21:28.861780 27361 net.cpp:408] maxpool3_maxpool3_0_split -> maxpool3_maxpool3_0_split_0
I0825 17:21:28.861790 27361 net.cpp:408] maxpool3_maxpool3_0_split -> maxpool3_maxpool3_0_split_1
I0825 17:21:28.861837 27361 net.cpp:150] Setting up maxpool3_maxpool3_0_split
I0825 17:21:28.861847 27361 net.cpp:157] Top shape: 1 256 64 64 (1048576)
I0825 17:21:28.861855 27361 net.cpp:157] Top shape: 1 256 64 64 (1048576)
I0825 17:21:28.861861 27361 net.cpp:165] Memory required for data: 1504706560
I0825 17:21:28.861870 27361 layer_factory.hpp:77] Creating layer resnet4a_bypass
I0825 17:21:28.861883 27361 net.cpp:100] Creating Layer resnet4a_bypass
I0825 17:21:28.861891 27361 net.cpp:434] resnet4a_bypass <- maxpool3_maxpool3_0_split_0
I0825 17:21:28.861903 27361 net.cpp:408] resnet4a_bypass -> resnet4a_bypass
I0825 17:21:28.869451 27361 net.cpp:150] Setting up resnet4a_bypass
I0825 17:21:28.869484 27361 net.cpp:157] Top shape: 1 512 64 64 (2097152)
I0825 17:21:28.869493 27361 net.cpp:165] Memory required for data: 1513095168
I0825 17:21:28.869503 27361 layer_factory.hpp:77] Creating layer resnet4a_btlnk
I0825 17:21:28.869519 27361 net.cpp:100] Creating Layer resnet4a_btlnk
I0825 17:21:28.869529 27361 net.cpp:434] resnet4a_btlnk <- maxpool3_maxpool3_0_split_1
I0825 17:21:28.869539 27361 net.cpp:408] resnet4a_btlnk -> resnet4a_btlnk
I0825 17:21:28.870617 27361 net.cpp:150] Setting up resnet4a_btlnk
I0825 17:21:28.870632 27361 net.cpp:157] Top shape: 1 64 64 64 (262144)
I0825 17:21:28.870640 27361 net.cpp:165] Memory required for data: 1514143744
I0825 17:21:28.870647 27361 layer_factory.hpp:77] Creating layer resnet4a_btlnk_relu
I0825 17:21:28.870664 27361 net.cpp:100] Creating Layer resnet4a_btlnk_relu
I0825 17:21:28.870672 27361 net.cpp:434] resnet4a_btlnk_relu <- resnet4a_btlnk
I0825 17:21:28.870682 27361 net.cpp:395] resnet4a_btlnk_relu -> resnet4a_btlnk (in-place)
I0825 17:21:28.870692 27361 net.cpp:150] Setting up resnet4a_btlnk_relu
I0825 17:21:28.870700 27361 net.cpp:157] Top shape: 1 64 64 64 (262144)
I0825 17:21:28.870707 27361 net.cpp:165] Memory required for data: 1515192320
I0825 17:21:28.870712 27361 layer_factory.hpp:77] Creating layer resnet4a_conv
I0825 17:21:28.870724 27361 net.cpp:100] Creating Layer resnet4a_conv
I0825 17:21:28.870731 27361 net.cpp:434] resnet4a_conv <- resnet4a_btlnk
I0825 17:21:28.870748 27361 net.cpp:408] resnet4a_conv -> resnet4a_conv
I0825 17:21:28.872869 27361 net.cpp:150] Setting up resnet4a_conv
I0825 17:21:28.872885 27361 net.cpp:157] Top shape: 1 64 64 64 (262144)
I0825 17:21:28.872892 27361 net.cpp:165] Memory required for data: 1516240896
I0825 17:21:28.872902 27361 layer_factory.hpp:77] Creating layer resnet4a_conv_relu
I0825 17:21:28.872922 27361 net.cpp:100] Creating Layer resnet4a_conv_relu
I0825 17:21:28.872931 27361 net.cpp:434] resnet4a_conv_relu <- resnet4a_conv
I0825 17:21:28.872939 27361 net.cpp:395] resnet4a_conv_relu -> resnet4a_conv (in-place)
I0825 17:21:28.872951 27361 net.cpp:150] Setting up resnet4a_conv_relu
I0825 17:21:28.872958 27361 net.cpp:157] Top shape: 1 64 64 64 (262144)
I0825 17:21:28.872964 27361 net.cpp:165] Memory required for data: 1517289472
I0825 17:21:28.872972 27361 layer_factory.hpp:77] Creating layer resnet4a_expnd
I0825 17:21:28.872998 27361 net.cpp:100] Creating Layer resnet4a_expnd
I0825 17:21:28.873005 27361 net.cpp:434] resnet4a_expnd <- resnet4a_conv
I0825 17:21:28.873014 27361 net.cpp:408] resnet4a_expnd -> resnet4a_expnd
I0825 17:21:28.874918 27361 net.cpp:150] Setting up resnet4a_expnd
I0825 17:21:28.874934 27361 net.cpp:157] Top shape: 1 512 64 64 (2097152)
I0825 17:21:28.874940 27361 net.cpp:165] Memory required for data: 1525678080
I0825 17:21:28.874948 27361 layer_factory.hpp:77] Creating layer resnet4a_eltwise
I0825 17:21:28.874959 27361 net.cpp:100] Creating Layer resnet4a_eltwise
I0825 17:21:28.874966 27361 net.cpp:434] resnet4a_eltwise <- resnet4a_bypass
I0825 17:21:28.874974 27361 net.cpp:434] resnet4a_eltwise <- resnet4a_expnd
I0825 17:21:28.874982 27361 net.cpp:408] resnet4a_eltwise -> resnet4a_eltwise
I0825 17:21:28.875013 27361 net.cpp:150] Setting up resnet4a_eltwise
I0825 17:21:28.875022 27361 net.cpp:157] Top shape: 1 512 64 64 (2097152)
I0825 17:21:28.875028 27361 net.cpp:165] Memory required for data: 1534066688
I0825 17:21:28.875036 27361 layer_factory.hpp:77] Creating layer resnet4a_eltwise_relu
I0825 17:21:28.875049 27361 net.cpp:100] Creating Layer resnet4a_eltwise_relu
I0825 17:21:28.875056 27361 net.cpp:434] resnet4a_eltwise_relu <- resnet4a_eltwise
I0825 17:21:28.875063 27361 net.cpp:395] resnet4a_eltwise_relu -> resnet4a_eltwise (in-place)
I0825 17:21:28.875072 27361 net.cpp:150] Setting up resnet4a_eltwise_relu
I0825 17:21:28.875080 27361 net.cpp:157] Top shape: 1 512 64 64 (2097152)
I0825 17:21:28.875087 27361 net.cpp:165] Memory required for data: 1542455296
I0825 17:21:28.875092 27361 layer_factory.hpp:77] Creating layer resnet4a_eltwise_resnet4a_eltwise_relu_0_split
I0825 17:21:28.875100 27361 net.cpp:100] Creating Layer resnet4a_eltwise_resnet4a_eltwise_relu_0_split
I0825 17:21:28.875108 27361 net.cpp:434] resnet4a_eltwise_resnet4a_eltwise_relu_0_split <- resnet4a_eltwise
I0825 17:21:28.875114 27361 net.cpp:408] resnet4a_eltwise_resnet4a_eltwise_relu_0_split -> resnet4a_eltwise_resnet4a_eltwise_relu_0_split_0
I0825 17:21:28.875123 27361 net.cpp:408] resnet4a_eltwise_resnet4a_eltwise_relu_0_split -> resnet4a_eltwise_resnet4a_eltwise_relu_0_split_1
I0825 17:21:28.875169 27361 net.cpp:150] Setting up resnet4a_eltwise_resnet4a_eltwise_relu_0_split
I0825 17:21:28.875179 27361 net.cpp:157] Top shape: 1 512 64 64 (2097152)
I0825 17:21:28.875186 27361 net.cpp:157] Top shape: 1 512 64 64 (2097152)
I0825 17:21:28.875191 27361 net.cpp:165] Memory required for data: 1559232512
I0825 17:21:28.875201 27361 layer_factory.hpp:77] Creating layer resnet4b_btlnk
I0825 17:21:28.875214 27361 net.cpp:100] Creating Layer resnet4b_btlnk
I0825 17:21:28.875221 27361 net.cpp:434] resnet4b_btlnk <- resnet4a_eltwise_resnet4a_eltwise_relu_0_split_0
I0825 17:21:28.875232 27361 net.cpp:408] resnet4b_btlnk -> resnet4b_btlnk
I0825 17:21:28.877012 27361 net.cpp:150] Setting up resnet4b_btlnk
I0825 17:21:28.877024 27361 net.cpp:157] Top shape: 1 64 64 64 (262144)
I0825 17:21:28.877032 27361 net.cpp:165] Memory required for data: 1560281088
I0825 17:21:28.877039 27361 layer_factory.hpp:77] Creating layer resnet4b_btlnk_relu
I0825 17:21:28.877048 27361 net.cpp:100] Creating Layer resnet4b_btlnk_relu
I0825 17:21:28.877054 27361 net.cpp:434] resnet4b_btlnk_relu <- resnet4b_btlnk
I0825 17:21:28.877063 27361 net.cpp:395] resnet4b_btlnk_relu -> resnet4b_btlnk (in-place)
I0825 17:21:28.877071 27361 net.cpp:150] Setting up resnet4b_btlnk_relu
I0825 17:21:28.877079 27361 net.cpp:157] Top shape: 1 64 64 64 (262144)
I0825 17:21:28.877085 27361 net.cpp:165] Memory required for data: 1561329664
I0825 17:21:28.877092 27361 layer_factory.hpp:77] Creating layer resnet4b_conv
I0825 17:21:28.877104 27361 net.cpp:100] Creating Layer resnet4b_conv
I0825 17:21:28.877110 27361 net.cpp:434] resnet4b_conv <- resnet4b_btlnk
I0825 17:21:28.877121 27361 net.cpp:408] resnet4b_conv -> resnet4b_conv
I0825 17:21:28.879134 27361 net.cpp:150] Setting up resnet4b_conv
I0825 17:21:28.879150 27361 net.cpp:157] Top shape: 1 64 64 64 (262144)
I0825 17:21:28.879156 27361 net.cpp:165] Memory required for data: 1562378240
I0825 17:21:28.879175 27361 layer_factory.hpp:77] Creating layer resnet4b_conv_relu
I0825 17:21:28.879187 27361 net.cpp:100] Creating Layer resnet4b_conv_relu
I0825 17:21:28.879195 27361 net.cpp:434] resnet4b_conv_relu <- resnet4b_conv
I0825 17:21:28.879204 27361 net.cpp:395] resnet4b_conv_relu -> resnet4b_conv (in-place)
I0825 17:21:28.879212 27361 net.cpp:150] Setting up resnet4b_conv_relu
I0825 17:21:28.879220 27361 net.cpp:157] Top shape: 1 64 64 64 (262144)
I0825 17:21:28.879226 27361 net.cpp:165] Memory required for data: 1563426816
I0825 17:21:28.879232 27361 layer_factory.hpp:77] Creating layer resnet4b_expnd
I0825 17:21:28.879242 27361 net.cpp:100] Creating Layer resnet4b_expnd
I0825 17:21:28.879250 27361 net.cpp:434] resnet4b_expnd <- resnet4b_conv
I0825 17:21:28.879259 27361 net.cpp:408] resnet4b_expnd -> resnet4b_expnd
I0825 17:21:28.881043 27361 net.cpp:150] Setting up resnet4b_expnd
I0825 17:21:28.881062 27361 net.cpp:157] Top shape: 1 512 64 64 (2097152)
I0825 17:21:28.881069 27361 net.cpp:165] Memory required for data: 1571815424
I0825 17:21:28.881078 27361 layer_factory.hpp:77] Creating layer resnet4b_eltwise
I0825 17:21:28.881088 27361 net.cpp:100] Creating Layer resnet4b_eltwise
I0825 17:21:28.881095 27361 net.cpp:434] resnet4b_eltwise <- resnet4a_eltwise_resnet4a_eltwise_relu_0_split_1
I0825 17:21:28.881103 27361 net.cpp:434] resnet4b_eltwise <- resnet4b_expnd
I0825 17:21:28.881111 27361 net.cpp:408] resnet4b_eltwise -> resnet4b_eltwise
I0825 17:21:28.881145 27361 net.cpp:150] Setting up resnet4b_eltwise
I0825 17:21:28.881155 27361 net.cpp:157] Top shape: 1 512 64 64 (2097152)
I0825 17:21:28.881160 27361 net.cpp:165] Memory required for data: 1580204032
I0825 17:21:28.881167 27361 layer_factory.hpp:77] Creating layer resnet4b_eltwise_relu
I0825 17:21:28.881175 27361 net.cpp:100] Creating Layer resnet4b_eltwise_relu
I0825 17:21:28.881182 27361 net.cpp:434] resnet4b_eltwise_relu <- resnet4b_eltwise
I0825 17:21:28.881189 27361 net.cpp:395] resnet4b_eltwise_relu -> resnet4b_eltwise (in-place)
I0825 17:21:28.881198 27361 net.cpp:150] Setting up resnet4b_eltwise_relu
I0825 17:21:28.881206 27361 net.cpp:157] Top shape: 1 512 64 64 (2097152)
I0825 17:21:28.881211 27361 net.cpp:165] Memory required for data: 1588592640
I0825 17:21:28.881217 27361 layer_factory.hpp:77] Creating layer resnet4b_eltwise_resnet4b_eltwise_relu_0_split
I0825 17:21:28.881225 27361 net.cpp:100] Creating Layer resnet4b_eltwise_resnet4b_eltwise_relu_0_split
I0825 17:21:28.881237 27361 net.cpp:434] resnet4b_eltwise_resnet4b_eltwise_relu_0_split <- resnet4b_eltwise
I0825 17:21:28.881244 27361 net.cpp:408] resnet4b_eltwise_resnet4b_eltwise_relu_0_split -> resnet4b_eltwise_resnet4b_eltwise_relu_0_split_0
I0825 17:21:28.881254 27361 net.cpp:408] resnet4b_eltwise_resnet4b_eltwise_relu_0_split -> resnet4b_eltwise_resnet4b_eltwise_relu_0_split_1
I0825 17:21:28.881301 27361 net.cpp:150] Setting up resnet4b_eltwise_resnet4b_eltwise_relu_0_split
I0825 17:21:28.881310 27361 net.cpp:157] Top shape: 1 512 64 64 (2097152)
I0825 17:21:28.881319 27361 net.cpp:157] Top shape: 1 512 64 64 (2097152)
I0825 17:21:28.881325 27361 net.cpp:165] Memory required for data: 1605369856
I0825 17:21:28.881330 27361 layer_factory.hpp:77] Creating layer maxpool4
I0825 17:21:28.881341 27361 net.cpp:100] Creating Layer maxpool4
I0825 17:21:28.881347 27361 net.cpp:434] maxpool4 <- resnet4b_eltwise_resnet4b_eltwise_relu_0_split_0
I0825 17:21:28.881362 27361 net.cpp:408] maxpool4 -> maxpool4
I0825 17:21:28.881410 27361 net.cpp:150] Setting up maxpool4
I0825 17:21:28.881420 27361 net.cpp:157] Top shape: 1 512 32 32 (524288)
I0825 17:21:28.881427 27361 net.cpp:165] Memory required for data: 1607467008
I0825 17:21:28.881433 27361 layer_factory.hpp:77] Creating layer maxpool4_maxpool4_0_split
I0825 17:21:28.881440 27361 net.cpp:100] Creating Layer maxpool4_maxpool4_0_split
I0825 17:21:28.881448 27361 net.cpp:434] maxpool4_maxpool4_0_split <- maxpool4
I0825 17:21:28.881458 27361 net.cpp:408] maxpool4_maxpool4_0_split -> maxpool4_maxpool4_0_split_0
I0825 17:21:28.881475 27361 net.cpp:408] maxpool4_maxpool4_0_split -> maxpool4_maxpool4_0_split_1
I0825 17:21:28.881518 27361 net.cpp:150] Setting up maxpool4_maxpool4_0_split
I0825 17:21:28.881530 27361 net.cpp:157] Top shape: 1 512 32 32 (524288)
I0825 17:21:28.881536 27361 net.cpp:157] Top shape: 1 512 32 32 (524288)
I0825 17:21:28.881542 27361 net.cpp:165] Memory required for data: 1611661312
I0825 17:21:28.881549 27361 layer_factory.hpp:77] Creating layer resnet5a_bypass
I0825 17:21:28.881561 27361 net.cpp:100] Creating Layer resnet5a_bypass
I0825 17:21:28.881568 27361 net.cpp:434] resnet5a_bypass <- maxpool4_maxpool4_0_split_0
I0825 17:21:28.881579 27361 net.cpp:408] resnet5a_bypass -> resnet5a_bypass
I0825 17:21:28.906239 27361 net.cpp:150] Setting up resnet5a_bypass
I0825 17:21:28.906268 27361 net.cpp:157] Top shape: 1 1024 32 32 (1048576)
I0825 17:21:28.906275 27361 net.cpp:165] Memory required for data: 1615855616
I0825 17:21:28.906283 27361 layer_factory.hpp:77] Creating layer resnet5a_btlnk
I0825 17:21:28.906296 27361 net.cpp:100] Creating Layer resnet5a_btlnk
I0825 17:21:28.906303 27361 net.cpp:434] resnet5a_btlnk <- maxpool4_maxpool4_0_split_1
I0825 17:21:28.906314 27361 net.cpp:408] resnet5a_btlnk -> resnet5a_btlnk
I0825 17:21:28.909907 27361 net.cpp:150] Setting up resnet5a_btlnk
I0825 17:21:28.909930 27361 net.cpp:157] Top shape: 1 128 32 32 (131072)
I0825 17:21:28.909936 27361 net.cpp:165] Memory required for data: 1616379904
I0825 17:21:28.909945 27361 layer_factory.hpp:77] Creating layer resnet5a_btlnk_relu
I0825 17:21:28.909955 27361 net.cpp:100] Creating Layer resnet5a_btlnk_relu
I0825 17:21:28.909960 27361 net.cpp:434] resnet5a_btlnk_relu <- resnet5a_btlnk
I0825 17:21:28.909968 27361 net.cpp:395] resnet5a_btlnk_relu -> resnet5a_btlnk (in-place)
I0825 17:21:28.909978 27361 net.cpp:150] Setting up resnet5a_btlnk_relu
I0825 17:21:28.909986 27361 net.cpp:157] Top shape: 1 128 32 32 (131072)
I0825 17:21:28.909991 27361 net.cpp:165] Memory required for data: 1616904192
I0825 17:21:28.909996 27361 layer_factory.hpp:77] Creating layer resnet5a_conv
I0825 17:21:28.910008 27361 net.cpp:100] Creating Layer resnet5a_conv
I0825 17:21:28.910014 27361 net.cpp:434] resnet5a_conv <- resnet5a_btlnk
I0825 17:21:28.910024 27361 net.cpp:408] resnet5a_conv -> resnet5a_conv
I0825 17:21:28.916817 27361 net.cpp:150] Setting up resnet5a_conv
I0825 17:21:28.916843 27361 net.cpp:157] Top shape: 1 128 32 32 (131072)
I0825 17:21:28.916857 27361 net.cpp:165] Memory required for data: 1617428480
I0825 17:21:28.916867 27361 layer_factory.hpp:77] Creating layer resnet5a_conv_relu
I0825 17:21:28.916877 27361 net.cpp:100] Creating Layer resnet5a_conv_relu
I0825 17:21:28.916883 27361 net.cpp:434] resnet5a_conv_relu <- resnet5a_conv
I0825 17:21:28.916892 27361 net.cpp:395] resnet5a_conv_relu -> resnet5a_conv (in-place)
I0825 17:21:28.916900 27361 net.cpp:150] Setting up resnet5a_conv_relu
I0825 17:21:28.916908 27361 net.cpp:157] Top shape: 1 128 32 32 (131072)
I0825 17:21:28.916913 27361 net.cpp:165] Memory required for data: 1617952768
I0825 17:21:28.916918 27361 layer_factory.hpp:77] Creating layer resnet5a_expnd
I0825 17:21:28.916929 27361 net.cpp:100] Creating Layer resnet5a_expnd
I0825 17:21:28.916935 27361 net.cpp:434] resnet5a_expnd <- resnet5a_conv
I0825 17:21:28.916944 27361 net.cpp:408] resnet5a_expnd -> resnet5a_expnd
I0825 17:21:28.922513 27361 net.cpp:150] Setting up resnet5a_expnd
I0825 17:21:28.922528 27361 net.cpp:157] Top shape: 1 1024 32 32 (1048576)
I0825 17:21:28.922533 27361 net.cpp:165] Memory required for data: 1622147072
I0825 17:21:28.922539 27361 layer_factory.hpp:77] Creating layer resnet5a_eltwise
I0825 17:21:28.922550 27361 net.cpp:100] Creating Layer resnet5a_eltwise
I0825 17:21:28.922556 27361 net.cpp:434] resnet5a_eltwise <- resnet5a_bypass
I0825 17:21:28.922564 27361 net.cpp:434] resnet5a_eltwise <- resnet5a_expnd
I0825 17:21:28.922570 27361 net.cpp:408] resnet5a_eltwise -> resnet5a_eltwise
I0825 17:21:28.922607 27361 net.cpp:150] Setting up resnet5a_eltwise
I0825 17:21:28.922617 27361 net.cpp:157] Top shape: 1 1024 32 32 (1048576)
I0825 17:21:28.922633 27361 net.cpp:165] Memory required for data: 1626341376
I0825 17:21:28.922638 27361 layer_factory.hpp:77] Creating layer resnet5a_eltwise_relu
I0825 17:21:28.922648 27361 net.cpp:100] Creating Layer resnet5a_eltwise_relu
I0825 17:21:28.922655 27361 net.cpp:434] resnet5a_eltwise_relu <- resnet5a_eltwise
I0825 17:21:28.922662 27361 net.cpp:395] resnet5a_eltwise_relu -> resnet5a_eltwise (in-place)
I0825 17:21:28.922669 27361 net.cpp:150] Setting up resnet5a_eltwise_relu
I0825 17:21:28.922677 27361 net.cpp:157] Top shape: 1 1024 32 32 (1048576)
I0825 17:21:28.922682 27361 net.cpp:165] Memory required for data: 1630535680
I0825 17:21:28.922688 27361 layer_factory.hpp:77] Creating layer resnet5a_eltwise_resnet5a_eltwise_relu_0_split
I0825 17:21:28.922695 27361 net.cpp:100] Creating Layer resnet5a_eltwise_resnet5a_eltwise_relu_0_split
I0825 17:21:28.922700 27361 net.cpp:434] resnet5a_eltwise_resnet5a_eltwise_relu_0_split <- resnet5a_eltwise
I0825 17:21:28.922708 27361 net.cpp:408] resnet5a_eltwise_resnet5a_eltwise_relu_0_split -> resnet5a_eltwise_resnet5a_eltwise_relu_0_split_0
I0825 17:21:28.922715 27361 net.cpp:408] resnet5a_eltwise_resnet5a_eltwise_relu_0_split -> resnet5a_eltwise_resnet5a_eltwise_relu_0_split_1
I0825 17:21:28.922758 27361 net.cpp:150] Setting up resnet5a_eltwise_resnet5a_eltwise_relu_0_split
I0825 17:21:28.922777 27361 net.cpp:157] Top shape: 1 1024 32 32 (1048576)
I0825 17:21:28.922783 27361 net.cpp:157] Top shape: 1 1024 32 32 (1048576)
I0825 17:21:28.922787 27361 net.cpp:165] Memory required for data: 1638924288
I0825 17:21:28.922792 27361 layer_factory.hpp:77] Creating layer resnet5b_btlnk
I0825 17:21:28.922807 27361 net.cpp:100] Creating Layer resnet5b_btlnk
I0825 17:21:28.922813 27361 net.cpp:434] resnet5b_btlnk <- resnet5a_eltwise_resnet5a_eltwise_relu_0_split_0
I0825 17:21:28.922821 27361 net.cpp:408] resnet5b_btlnk -> resnet5b_btlnk
I0825 17:21:28.928664 27361 net.cpp:150] Setting up resnet5b_btlnk
I0825 17:21:28.928689 27361 net.cpp:157] Top shape: 1 128 32 32 (131072)
I0825 17:21:28.928695 27361 net.cpp:165] Memory required for data: 1639448576
I0825 17:21:28.928709 27361 layer_factory.hpp:77] Creating layer resnet5b_btlnk_relu
I0825 17:21:28.928717 27361 net.cpp:100] Creating Layer resnet5b_btlnk_relu
I0825 17:21:28.928724 27361 net.cpp:434] resnet5b_btlnk_relu <- resnet5b_btlnk
I0825 17:21:28.928731 27361 net.cpp:395] resnet5b_btlnk_relu -> resnet5b_btlnk (in-place)
I0825 17:21:28.928745 27361 net.cpp:150] Setting up resnet5b_btlnk_relu
I0825 17:21:28.928752 27361 net.cpp:157] Top shape: 1 128 32 32 (131072)
I0825 17:21:28.928757 27361 net.cpp:165] Memory required for data: 1639972864
I0825 17:21:28.928762 27361 layer_factory.hpp:77] Creating layer resnet5b_conv
I0825 17:21:28.928773 27361 net.cpp:100] Creating Layer resnet5b_conv
I0825 17:21:28.928778 27361 net.cpp:434] resnet5b_conv <- resnet5b_btlnk
I0825 17:21:28.928787 27361 net.cpp:408] resnet5b_conv -> resnet5b_conv
I0825 17:21:28.935266 27361 net.cpp:150] Setting up resnet5b_conv
I0825 17:21:28.935286 27361 net.cpp:157] Top shape: 1 128 32 32 (131072)
I0825 17:21:28.935291 27361 net.cpp:165] Memory required for data: 1640497152
I0825 17:21:28.935299 27361 layer_factory.hpp:77] Creating layer resnet5b_conv_relu
I0825 17:21:28.935308 27361 net.cpp:100] Creating Layer resnet5b_conv_relu
I0825 17:21:28.935314 27361 net.cpp:434] resnet5b_conv_relu <- resnet5b_conv
I0825 17:21:28.935320 27361 net.cpp:395] resnet5b_conv_relu -> resnet5b_conv (in-place)
I0825 17:21:28.935329 27361 net.cpp:150] Setting up resnet5b_conv_relu
I0825 17:21:28.935335 27361 net.cpp:157] Top shape: 1 128 32 32 (131072)
I0825 17:21:28.935340 27361 net.cpp:165] Memory required for data: 1641021440
I0825 17:21:28.935344 27361 layer_factory.hpp:77] Creating layer resnet5b_expnd
I0825 17:21:28.935355 27361 net.cpp:100] Creating Layer resnet5b_expnd
I0825 17:21:28.935361 27361 net.cpp:434] resnet5b_expnd <- resnet5b_conv
I0825 17:21:28.935367 27361 net.cpp:408] resnet5b_expnd -> resnet5b_expnd
I0825 17:21:28.940423 27361 net.cpp:150] Setting up resnet5b_expnd
I0825 17:21:28.940441 27361 net.cpp:157] Top shape: 1 1024 32 32 (1048576)
I0825 17:21:28.940446 27361 net.cpp:165] Memory required for data: 1645215744
I0825 17:21:28.940454 27361 layer_factory.hpp:77] Creating layer resnet5b_eltwise
I0825 17:21:28.940465 27361 net.cpp:100] Creating Layer resnet5b_eltwise
I0825 17:21:28.940472 27361 net.cpp:434] resnet5b_eltwise <- resnet5a_eltwise_resnet5a_eltwise_relu_0_split_1
I0825 17:21:28.940479 27361 net.cpp:434] resnet5b_eltwise <- resnet5b_expnd
I0825 17:21:28.940485 27361 net.cpp:408] resnet5b_eltwise -> resnet5b_eltwise
I0825 17:21:28.940512 27361 net.cpp:150] Setting up resnet5b_eltwise
I0825 17:21:28.940521 27361 net.cpp:157] Top shape: 1 1024 32 32 (1048576)
I0825 17:21:28.940526 27361 net.cpp:165] Memory required for data: 1649410048
I0825 17:21:28.940529 27361 layer_factory.hpp:77] Creating layer resnet5b_eltwise_relu
I0825 17:21:28.940538 27361 net.cpp:100] Creating Layer resnet5b_eltwise_relu
I0825 17:21:28.940543 27361 net.cpp:434] resnet5b_eltwise_relu <- resnet5b_eltwise
I0825 17:21:28.940549 27361 net.cpp:395] resnet5b_eltwise_relu -> resnet5b_eltwise (in-place)
I0825 17:21:28.940557 27361 net.cpp:150] Setting up resnet5b_eltwise_relu
I0825 17:21:28.940562 27361 net.cpp:157] Top shape: 1 1024 32 32 (1048576)
I0825 17:21:28.940567 27361 net.cpp:165] Memory required for data: 1653604352
I0825 17:21:28.940573 27361 layer_factory.hpp:77] Creating layer unpool4
I0825 17:21:28.940582 27361 net.cpp:100] Creating Layer unpool4
I0825 17:21:28.940587 27361 net.cpp:434] unpool4 <- resnet5b_eltwise
I0825 17:21:28.940596 27361 net.cpp:408] unpool4 -> unpool4
I0825 17:21:29.072377 27361 net.cpp:150] Setting up unpool4
I0825 17:21:29.072413 27361 net.cpp:157] Top shape: 1 1024 64 64 (4194304)
I0825 17:21:29.072417 27361 net.cpp:165] Memory required for data: 1670381568
I0825 17:21:29.072427 27361 layer_factory.hpp:77] Creating layer concat56_concat
I0825 17:21:29.072445 27361 net.cpp:100] Creating Layer concat56_concat
I0825 17:21:29.072451 27361 net.cpp:434] concat56_concat <- resnet4b_eltwise_resnet4b_eltwise_relu_0_split_1
I0825 17:21:29.072458 27361 net.cpp:434] concat56_concat <- unpool4
I0825 17:21:29.072464 27361 net.cpp:408] concat56_concat -> concat56_concat
I0825 17:21:29.072490 27361 net.cpp:150] Setting up concat56_concat
I0825 17:21:29.072496 27361 net.cpp:157] Top shape: 1 1536 64 64 (6291456)
I0825 17:21:29.072500 27361 net.cpp:165] Memory required for data: 1695547392
I0825 17:21:29.072510 27361 layer_factory.hpp:77] Creating layer concat56_concat_concat56_concat_0_split
I0825 17:21:29.072517 27361 net.cpp:100] Creating Layer concat56_concat_concat56_concat_0_split
I0825 17:21:29.072521 27361 net.cpp:434] concat56_concat_concat56_concat_0_split <- concat56_concat
I0825 17:21:29.072525 27361 net.cpp:408] concat56_concat_concat56_concat_0_split -> concat56_concat_concat56_concat_0_split_0
I0825 17:21:29.072531 27361 net.cpp:408] concat56_concat_concat56_concat_0_split -> concat56_concat_concat56_concat_0_split_1
I0825 17:21:29.072561 27361 net.cpp:150] Setting up concat56_concat_concat56_concat_0_split
I0825 17:21:29.072566 27361 net.cpp:157] Top shape: 1 1536 64 64 (6291456)
I0825 17:21:29.072571 27361 net.cpp:157] Top shape: 1 1536 64 64 (6291456)
I0825 17:21:29.072573 27361 net.cpp:165] Memory required for data: 1745879040
I0825 17:21:29.072577 27361 layer_factory.hpp:77] Creating layer resnet6a_bypass
I0825 17:21:29.072593 27361 net.cpp:100] Creating Layer resnet6a_bypass
I0825 17:21:29.072598 27361 net.cpp:434] resnet6a_bypass <- concat56_concat_concat56_concat_0_split_0
I0825 17:21:29.072604 27361 net.cpp:408] resnet6a_bypass -> resnet6a_bypass
I0825 17:21:29.094053 27361 net.cpp:150] Setting up resnet6a_bypass
I0825 17:21:29.094070 27361 net.cpp:157] Top shape: 1 512 64 64 (2097152)
I0825 17:21:29.094074 27361 net.cpp:165] Memory required for data: 1754267648
I0825 17:21:29.094080 27361 layer_factory.hpp:77] Creating layer resnet6a_btlnk
I0825 17:21:29.094089 27361 net.cpp:100] Creating Layer resnet6a_btlnk
I0825 17:21:29.094105 27361 net.cpp:434] resnet6a_btlnk <- concat56_concat_concat56_concat_0_split_1
I0825 17:21:29.094110 27361 net.cpp:408] resnet6a_btlnk -> resnet6a_btlnk
I0825 17:21:29.096810 27361 net.cpp:150] Setting up resnet6a_btlnk
I0825 17:21:29.096820 27361 net.cpp:157] Top shape: 1 64 64 64 (262144)
I0825 17:21:29.096823 27361 net.cpp:165] Memory required for data: 1755316224
I0825 17:21:29.096828 27361 layer_factory.hpp:77] Creating layer resnet6a_btlnk_relu
I0825 17:21:29.096835 27361 net.cpp:100] Creating Layer resnet6a_btlnk_relu
I0825 17:21:29.096839 27361 net.cpp:434] resnet6a_btlnk_relu <- resnet6a_btlnk
I0825 17:21:29.096844 27361 net.cpp:395] resnet6a_btlnk_relu -> resnet6a_btlnk (in-place)
I0825 17:21:29.096850 27361 net.cpp:150] Setting up resnet6a_btlnk_relu
I0825 17:21:29.096854 27361 net.cpp:157] Top shape: 1 64 64 64 (262144)
I0825 17:21:29.096858 27361 net.cpp:165] Memory required for data: 1756364800
I0825 17:21:29.096861 27361 layer_factory.hpp:77] Creating layer resnet6a_conv
I0825 17:21:29.096868 27361 net.cpp:100] Creating Layer resnet6a_conv
I0825 17:21:29.096871 27361 net.cpp:434] resnet6a_conv <- resnet6a_btlnk
I0825 17:21:29.096878 27361 net.cpp:408] resnet6a_conv -> resnet6a_conv
I0825 17:21:29.097971 27361 net.cpp:150] Setting up resnet6a_conv
I0825 17:21:29.097980 27361 net.cpp:157] Top shape: 1 64 64 64 (262144)
I0825 17:21:29.097982 27361 net.cpp:165] Memory required for data: 1757413376
I0825 17:21:29.097987 27361 layer_factory.hpp:77] Creating layer resnet6a_conv_relu
I0825 17:21:29.097995 27361 net.cpp:100] Creating Layer resnet6a_conv_relu
I0825 17:21:29.098000 27361 net.cpp:434] resnet6a_conv_relu <- resnet6a_conv
I0825 17:21:29.098003 27361 net.cpp:395] resnet6a_conv_relu -> resnet6a_conv (in-place)
I0825 17:21:29.098009 27361 net.cpp:150] Setting up resnet6a_conv_relu
I0825 17:21:29.098013 27361 net.cpp:157] Top shape: 1 64 64 64 (262144)
I0825 17:21:29.098016 27361 net.cpp:165] Memory required for data: 1758461952
I0825 17:21:29.098019 27361 layer_factory.hpp:77] Creating layer resnet6a_expnd
I0825 17:21:29.098026 27361 net.cpp:100] Creating Layer resnet6a_expnd
I0825 17:21:29.098031 27361 net.cpp:434] resnet6a_expnd <- resnet6a_conv
I0825 17:21:29.098037 27361 net.cpp:408] resnet6a_expnd -> resnet6a_expnd
I0825 17:21:29.099031 27361 net.cpp:150] Setting up resnet6a_expnd
I0825 17:21:29.099040 27361 net.cpp:157] Top shape: 1 512 64 64 (2097152)
I0825 17:21:29.099045 27361 net.cpp:165] Memory required for data: 1766850560
I0825 17:21:29.099051 27361 layer_factory.hpp:77] Creating layer resnet6a_eltwise
I0825 17:21:29.099058 27361 net.cpp:100] Creating Layer resnet6a_eltwise
I0825 17:21:29.099062 27361 net.cpp:434] resnet6a_eltwise <- resnet6a_bypass
I0825 17:21:29.099067 27361 net.cpp:434] resnet6a_eltwise <- resnet6a_expnd
I0825 17:21:29.099072 27361 net.cpp:408] resnet6a_eltwise -> resnet6a_eltwise
I0825 17:21:29.099092 27361 net.cpp:150] Setting up resnet6a_eltwise
I0825 17:21:29.099097 27361 net.cpp:157] Top shape: 1 512 64 64 (2097152)
I0825 17:21:29.099100 27361 net.cpp:165] Memory required for data: 1775239168
I0825 17:21:29.099104 27361 layer_factory.hpp:77] Creating layer resnet6a_eltwise_relu
I0825 17:21:29.099109 27361 net.cpp:100] Creating Layer resnet6a_eltwise_relu
I0825 17:21:29.099112 27361 net.cpp:434] resnet6a_eltwise_relu <- resnet6a_eltwise
I0825 17:21:29.099118 27361 net.cpp:395] resnet6a_eltwise_relu -> resnet6a_eltwise (in-place)
I0825 17:21:29.099123 27361 net.cpp:150] Setting up resnet6a_eltwise_relu
I0825 17:21:29.099128 27361 net.cpp:157] Top shape: 1 512 64 64 (2097152)
I0825 17:21:29.099130 27361 net.cpp:165] Memory required for data: 1783627776
I0825 17:21:29.099134 27361 layer_factory.hpp:77] Creating layer resnet6a_eltwise_resnet6a_eltwise_relu_0_split
I0825 17:21:29.099139 27361 net.cpp:100] Creating Layer resnet6a_eltwise_resnet6a_eltwise_relu_0_split
I0825 17:21:29.099143 27361 net.cpp:434] resnet6a_eltwise_resnet6a_eltwise_relu_0_split <- resnet6a_eltwise
I0825 17:21:29.099148 27361 net.cpp:408] resnet6a_eltwise_resnet6a_eltwise_relu_0_split -> resnet6a_eltwise_resnet6a_eltwise_relu_0_split_0
I0825 17:21:29.099159 27361 net.cpp:408] resnet6a_eltwise_resnet6a_eltwise_relu_0_split -> resnet6a_eltwise_resnet6a_eltwise_relu_0_split_1
I0825 17:21:29.099185 27361 net.cpp:150] Setting up resnet6a_eltwise_resnet6a_eltwise_relu_0_split
I0825 17:21:29.099190 27361 net.cpp:157] Top shape: 1 512 64 64 (2097152)
I0825 17:21:29.099195 27361 net.cpp:157] Top shape: 1 512 64 64 (2097152)
I0825 17:21:29.099198 27361 net.cpp:165] Memory required for data: 1800404992
I0825 17:21:29.099201 27361 layer_factory.hpp:77] Creating layer resnet6b_btlnk
I0825 17:21:29.099210 27361 net.cpp:100] Creating Layer resnet6b_btlnk
I0825 17:21:29.099213 27361 net.cpp:434] resnet6b_btlnk <- resnet6a_eltwise_resnet6a_eltwise_relu_0_split_0
I0825 17:21:29.099218 27361 net.cpp:408] resnet6b_btlnk -> resnet6b_btlnk
I0825 17:21:29.100205 27361 net.cpp:150] Setting up resnet6b_btlnk
I0825 17:21:29.100214 27361 net.cpp:157] Top shape: 1 64 64 64 (262144)
I0825 17:21:29.100217 27361 net.cpp:165] Memory required for data: 1801453568
I0825 17:21:29.100222 27361 layer_factory.hpp:77] Creating layer resnet6b_btlnk_relu
I0825 17:21:29.100227 27361 net.cpp:100] Creating Layer resnet6b_btlnk_relu
I0825 17:21:29.100231 27361 net.cpp:434] resnet6b_btlnk_relu <- resnet6b_btlnk
I0825 17:21:29.100236 27361 net.cpp:395] resnet6b_btlnk_relu -> resnet6b_btlnk (in-place)
I0825 17:21:29.100241 27361 net.cpp:150] Setting up resnet6b_btlnk_relu
I0825 17:21:29.100246 27361 net.cpp:157] Top shape: 1 64 64 64 (262144)
I0825 17:21:29.100250 27361 net.cpp:165] Memory required for data: 1802502144
I0825 17:21:29.100252 27361 layer_factory.hpp:77] Creating layer resnet6b_conv
I0825 17:21:29.100258 27361 net.cpp:100] Creating Layer resnet6b_conv
I0825 17:21:29.100261 27361 net.cpp:434] resnet6b_conv <- resnet6b_btlnk
I0825 17:21:29.100266 27361 net.cpp:408] resnet6b_conv -> resnet6b_conv
I0825 17:21:29.101359 27361 net.cpp:150] Setting up resnet6b_conv
I0825 17:21:29.101367 27361 net.cpp:157] Top shape: 1 64 64 64 (262144)
I0825 17:21:29.101371 27361 net.cpp:165] Memory required for data: 1803550720
I0825 17:21:29.101377 27361 layer_factory.hpp:77] Creating layer resnet6b_conv_relu
I0825 17:21:29.101382 27361 net.cpp:100] Creating Layer resnet6b_conv_relu
I0825 17:21:29.101385 27361 net.cpp:434] resnet6b_conv_relu <- resnet6b_conv
I0825 17:21:29.101392 27361 net.cpp:395] resnet6b_conv_relu -> resnet6b_conv (in-place)
I0825 17:21:29.101399 27361 net.cpp:150] Setting up resnet6b_conv_relu
I0825 17:21:29.101403 27361 net.cpp:157] Top shape: 1 64 64 64 (262144)
I0825 17:21:29.101408 27361 net.cpp:165] Memory required for data: 1804599296
I0825 17:21:29.101410 27361 layer_factory.hpp:77] Creating layer resnet6b_expnd
I0825 17:21:29.101416 27361 net.cpp:100] Creating Layer resnet6b_expnd
I0825 17:21:29.101420 27361 net.cpp:434] resnet6b_expnd <- resnet6b_conv
I0825 17:21:29.101424 27361 net.cpp:408] resnet6b_expnd -> resnet6b_expnd
I0825 17:21:29.102409 27361 net.cpp:150] Setting up resnet6b_expnd
I0825 17:21:29.102417 27361 net.cpp:157] Top shape: 1 512 64 64 (2097152)
I0825 17:21:29.102421 27361 net.cpp:165] Memory required for data: 1812987904
I0825 17:21:29.102424 27361 layer_factory.hpp:77] Creating layer resnet6b_eltwise
I0825 17:21:29.102430 27361 net.cpp:100] Creating Layer resnet6b_eltwise
I0825 17:21:29.102434 27361 net.cpp:434] resnet6b_eltwise <- resnet6a_eltwise_resnet6a_eltwise_relu_0_split_1
I0825 17:21:29.102438 27361 net.cpp:434] resnet6b_eltwise <- resnet6b_expnd
I0825 17:21:29.102443 27361 net.cpp:408] resnet6b_eltwise -> resnet6b_eltwise
I0825 17:21:29.102461 27361 net.cpp:150] Setting up resnet6b_eltwise
I0825 17:21:29.102468 27361 net.cpp:157] Top shape: 1 512 64 64 (2097152)
I0825 17:21:29.102470 27361 net.cpp:165] Memory required for data: 1821376512
I0825 17:21:29.102473 27361 layer_factory.hpp:77] Creating layer resnet6b_eltwise_relu
I0825 17:21:29.102479 27361 net.cpp:100] Creating Layer resnet6b_eltwise_relu
I0825 17:21:29.102483 27361 net.cpp:434] resnet6b_eltwise_relu <- resnet6b_eltwise
I0825 17:21:29.102493 27361 net.cpp:395] resnet6b_eltwise_relu -> resnet6b_eltwise (in-place)
I0825 17:21:29.102497 27361 net.cpp:150] Setting up resnet6b_eltwise_relu
I0825 17:21:29.102502 27361 net.cpp:157] Top shape: 1 512 64 64 (2097152)
I0825 17:21:29.102505 27361 net.cpp:165] Memory required for data: 1829765120
I0825 17:21:29.102509 27361 layer_factory.hpp:77] Creating layer unpool3
I0825 17:21:29.102517 27361 net.cpp:100] Creating Layer unpool3
I0825 17:21:29.102521 27361 net.cpp:434] unpool3 <- resnet6b_eltwise
I0825 17:21:29.102530 27361 net.cpp:408] unpool3 -> unpool3
I0825 17:21:29.130956 27361 net.cpp:150] Setting up unpool3
I0825 17:21:29.130973 27361 net.cpp:157] Top shape: 1 512 128 128 (8388608)
I0825 17:21:29.130977 27361 net.cpp:165] Memory required for data: 1863319552
I0825 17:21:29.130983 27361 layer_factory.hpp:77] Creating layer concat37_concat
I0825 17:21:29.130991 27361 net.cpp:100] Creating Layer concat37_concat
I0825 17:21:29.130995 27361 net.cpp:434] concat37_concat <- resnet3b_eltwise_resnet3b_eltwise_relu_0_split_1
I0825 17:21:29.131000 27361 net.cpp:434] concat37_concat <- unpool3
I0825 17:21:29.131006 27361 net.cpp:408] concat37_concat -> concat37_concat
I0825 17:21:29.131029 27361 net.cpp:150] Setting up concat37_concat
I0825 17:21:29.131036 27361 net.cpp:157] Top shape: 1 768 128 128 (12582912)
I0825 17:21:29.131038 27361 net.cpp:165] Memory required for data: 1913651200
I0825 17:21:29.131042 27361 layer_factory.hpp:77] Creating layer concat37_concat_concat37_concat_0_split
I0825 17:21:29.131047 27361 net.cpp:100] Creating Layer concat37_concat_concat37_concat_0_split
I0825 17:21:29.131050 27361 net.cpp:434] concat37_concat_concat37_concat_0_split <- concat37_concat
I0825 17:21:29.131057 27361 net.cpp:408] concat37_concat_concat37_concat_0_split -> concat37_concat_concat37_concat_0_split_0
I0825 17:21:29.131062 27361 net.cpp:408] concat37_concat_concat37_concat_0_split -> concat37_concat_concat37_concat_0_split_1
I0825 17:21:29.131090 27361 net.cpp:150] Setting up concat37_concat_concat37_concat_0_split
I0825 17:21:29.131096 27361 net.cpp:157] Top shape: 1 768 128 128 (12582912)
I0825 17:21:29.131100 27361 net.cpp:157] Top shape: 1 768 128 128 (12582912)
I0825 17:21:29.131103 27361 net.cpp:165] Memory required for data: 2014314496
I0825 17:21:29.131108 27361 layer_factory.hpp:77] Creating layer resnet7a_bypass
I0825 17:21:29.131116 27361 net.cpp:100] Creating Layer resnet7a_bypass
I0825 17:21:29.131120 27361 net.cpp:434] resnet7a_bypass <- concat37_concat_concat37_concat_0_split_0
I0825 17:21:29.131129 27361 net.cpp:408] resnet7a_bypass -> resnet7a_bypass
I0825 17:21:29.136724 27361 net.cpp:150] Setting up resnet7a_bypass
I0825 17:21:29.136739 27361 net.cpp:157] Top shape: 1 256 128 128 (4194304)
I0825 17:21:29.136742 27361 net.cpp:165] Memory required for data: 2031091712
I0825 17:21:29.136747 27361 layer_factory.hpp:77] Creating layer resnet7a_btlnk
I0825 17:21:29.136759 27361 net.cpp:100] Creating Layer resnet7a_btlnk
I0825 17:21:29.136764 27361 net.cpp:434] resnet7a_btlnk <- concat37_concat_concat37_concat_0_split_1
I0825 17:21:29.136768 27361 net.cpp:408] resnet7a_btlnk -> resnet7a_btlnk
I0825 17:21:29.137549 27361 net.cpp:150] Setting up resnet7a_btlnk
I0825 17:21:29.137557 27361 net.cpp:157] Top shape: 1 32 128 128 (524288)
I0825 17:21:29.137562 27361 net.cpp:165] Memory required for data: 2033188864
I0825 17:21:29.137565 27361 layer_factory.hpp:77] Creating layer resnet7a_btlnk_relu
I0825 17:21:29.137572 27361 net.cpp:100] Creating Layer resnet7a_btlnk_relu
I0825 17:21:29.137574 27361 net.cpp:434] resnet7a_btlnk_relu <- resnet7a_btlnk
I0825 17:21:29.137579 27361 net.cpp:395] resnet7a_btlnk_relu -> resnet7a_btlnk (in-place)
I0825 17:21:29.137585 27361 net.cpp:150] Setting up resnet7a_btlnk_relu
I0825 17:21:29.137589 27361 net.cpp:157] Top shape: 1 32 128 128 (524288)
I0825 17:21:29.137593 27361 net.cpp:165] Memory required for data: 2035286016
I0825 17:21:29.137595 27361 layer_factory.hpp:77] Creating layer resnet7a_conv
I0825 17:21:29.137604 27361 net.cpp:100] Creating Layer resnet7a_conv
I0825 17:21:29.137614 27361 net.cpp:434] resnet7a_conv <- resnet7a_btlnk
I0825 17:21:29.137619 27361 net.cpp:408] resnet7a_conv -> resnet7a_conv
I0825 17:21:29.137998 27361 net.cpp:150] Setting up resnet7a_conv
I0825 17:21:29.138006 27361 net.cpp:157] Top shape: 1 32 128 128 (524288)
I0825 17:21:29.138010 27361 net.cpp:165] Memory required for data: 2037383168
I0825 17:21:29.138015 27361 layer_factory.hpp:77] Creating layer resnet7a_conv_relu
I0825 17:21:29.138020 27361 net.cpp:100] Creating Layer resnet7a_conv_relu
I0825 17:21:29.138023 27361 net.cpp:434] resnet7a_conv_relu <- resnet7a_conv
I0825 17:21:29.138028 27361 net.cpp:395] resnet7a_conv_relu -> resnet7a_conv (in-place)
I0825 17:21:29.138033 27361 net.cpp:150] Setting up resnet7a_conv_relu
I0825 17:21:29.138037 27361 net.cpp:157] Top shape: 1 32 128 128 (524288)
I0825 17:21:29.138041 27361 net.cpp:165] Memory required for data: 2039480320
I0825 17:21:29.138044 27361 layer_factory.hpp:77] Creating layer resnet7a_expnd
I0825 17:21:29.138051 27361 net.cpp:100] Creating Layer resnet7a_expnd
I0825 17:21:29.138053 27361 net.cpp:434] resnet7a_expnd <- resnet7a_conv
I0825 17:21:29.138059 27361 net.cpp:408] resnet7a_expnd -> resnet7a_expnd
I0825 17:21:29.138402 27361 net.cpp:150] Setting up resnet7a_expnd
I0825 17:21:29.138411 27361 net.cpp:157] Top shape: 1 256 128 128 (4194304)
I0825 17:21:29.138413 27361 net.cpp:165] Memory required for data: 2056257536
I0825 17:21:29.138418 27361 layer_factory.hpp:77] Creating layer resnet7a_eltwise
I0825 17:21:29.138425 27361 net.cpp:100] Creating Layer resnet7a_eltwise
I0825 17:21:29.138429 27361 net.cpp:434] resnet7a_eltwise <- resnet7a_bypass
I0825 17:21:29.138434 27361 net.cpp:434] resnet7a_eltwise <- resnet7a_expnd
I0825 17:21:29.138438 27361 net.cpp:408] resnet7a_eltwise -> resnet7a_eltwise
I0825 17:21:29.138456 27361 net.cpp:150] Setting up resnet7a_eltwise
I0825 17:21:29.138461 27361 net.cpp:157] Top shape: 1 256 128 128 (4194304)
I0825 17:21:29.138465 27361 net.cpp:165] Memory required for data: 2073034752
I0825 17:21:29.138468 27361 layer_factory.hpp:77] Creating layer resnet7a_eltwise_relu
I0825 17:21:29.138473 27361 net.cpp:100] Creating Layer resnet7a_eltwise_relu
I0825 17:21:29.138476 27361 net.cpp:434] resnet7a_eltwise_relu <- resnet7a_eltwise
I0825 17:21:29.138484 27361 net.cpp:395] resnet7a_eltwise_relu -> resnet7a_eltwise (in-place)
I0825 17:21:29.138489 27361 net.cpp:150] Setting up resnet7a_eltwise_relu
I0825 17:21:29.138492 27361 net.cpp:157] Top shape: 1 256 128 128 (4194304)
I0825 17:21:29.138497 27361 net.cpp:165] Memory required for data: 2089811968
I0825 17:21:29.138502 27361 layer_factory.hpp:77] Creating layer resnet7a_eltwise_resnet7a_eltwise_relu_0_split
I0825 17:21:29.138506 27361 net.cpp:100] Creating Layer resnet7a_eltwise_resnet7a_eltwise_relu_0_split
I0825 17:21:29.138510 27361 net.cpp:434] resnet7a_eltwise_resnet7a_eltwise_relu_0_split <- resnet7a_eltwise
I0825 17:21:29.138514 27361 net.cpp:408] resnet7a_eltwise_resnet7a_eltwise_relu_0_split -> resnet7a_eltwise_resnet7a_eltwise_relu_0_split_0
I0825 17:21:29.138520 27361 net.cpp:408] resnet7a_eltwise_resnet7a_eltwise_relu_0_split -> resnet7a_eltwise_resnet7a_eltwise_relu_0_split_1
I0825 17:21:29.138546 27361 net.cpp:150] Setting up resnet7a_eltwise_resnet7a_eltwise_relu_0_split
I0825 17:21:29.138553 27361 net.cpp:157] Top shape: 1 256 128 128 (4194304)
I0825 17:21:29.138557 27361 net.cpp:157] Top shape: 1 256 128 128 (4194304)
I0825 17:21:29.138561 27361 net.cpp:165] Memory required for data: 2123366400
I0825 17:21:29.138563 27361 layer_factory.hpp:77] Creating layer resnet7b_btlnk
I0825 17:21:29.138571 27361 net.cpp:100] Creating Layer resnet7b_btlnk
I0825 17:21:29.138574 27361 net.cpp:434] resnet7b_btlnk <- resnet7a_eltwise_resnet7a_eltwise_relu_0_split_0
I0825 17:21:29.138579 27361 net.cpp:408] resnet7b_btlnk -> resnet7b_btlnk
I0825 17:21:29.138929 27361 net.cpp:150] Setting up resnet7b_btlnk
I0825 17:21:29.138938 27361 net.cpp:157] Top shape: 1 32 128 128 (524288)
I0825 17:21:29.138942 27361 net.cpp:165] Memory required for data: 2125463552
I0825 17:21:29.138952 27361 layer_factory.hpp:77] Creating layer resnet7b_btlnk_relu
I0825 17:21:29.138958 27361 net.cpp:100] Creating Layer resnet7b_btlnk_relu
I0825 17:21:29.138963 27361 net.cpp:434] resnet7b_btlnk_relu <- resnet7b_btlnk
I0825 17:21:29.138967 27361 net.cpp:395] resnet7b_btlnk_relu -> resnet7b_btlnk (in-place)
I0825 17:21:29.138972 27361 net.cpp:150] Setting up resnet7b_btlnk_relu
I0825 17:21:29.138978 27361 net.cpp:157] Top shape: 1 32 128 128 (524288)
I0825 17:21:29.138980 27361 net.cpp:165] Memory required for data: 2127560704
I0825 17:21:29.138983 27361 layer_factory.hpp:77] Creating layer resnet7b_conv
I0825 17:21:29.138993 27361 net.cpp:100] Creating Layer resnet7b_conv
I0825 17:21:29.138998 27361 net.cpp:434] resnet7b_conv <- resnet7b_btlnk
I0825 17:21:29.139003 27361 net.cpp:408] resnet7b_conv -> resnet7b_conv
I0825 17:21:29.139379 27361 net.cpp:150] Setting up resnet7b_conv
I0825 17:21:29.139387 27361 net.cpp:157] Top shape: 1 32 128 128 (524288)
I0825 17:21:29.139390 27361 net.cpp:165] Memory required for data: 2129657856
I0825 17:21:29.139396 27361 layer_factory.hpp:77] Creating layer resnet7b_conv_relu
I0825 17:21:29.139401 27361 net.cpp:100] Creating Layer resnet7b_conv_relu
I0825 17:21:29.139405 27361 net.cpp:434] resnet7b_conv_relu <- resnet7b_conv
I0825 17:21:29.139410 27361 net.cpp:395] resnet7b_conv_relu -> resnet7b_conv (in-place)
I0825 17:21:29.139415 27361 net.cpp:150] Setting up resnet7b_conv_relu
I0825 17:21:29.139420 27361 net.cpp:157] Top shape: 1 32 128 128 (524288)
I0825 17:21:29.139422 27361 net.cpp:165] Memory required for data: 2131755008
I0825 17:21:29.139425 27361 layer_factory.hpp:77] Creating layer resnet7b_expnd
I0825 17:21:29.139433 27361 net.cpp:100] Creating Layer resnet7b_expnd
I0825 17:21:29.139436 27361 net.cpp:434] resnet7b_expnd <- resnet7b_conv
I0825 17:21:29.139441 27361 net.cpp:408] resnet7b_expnd -> resnet7b_expnd
I0825 17:21:29.139786 27361 net.cpp:150] Setting up resnet7b_expnd
I0825 17:21:29.139792 27361 net.cpp:157] Top shape: 1 256 128 128 (4194304)
I0825 17:21:29.139796 27361 net.cpp:165] Memory required for data: 2148532224
I0825 17:21:29.139801 27361 layer_factory.hpp:77] Creating layer resnet7b_eltwise
I0825 17:21:29.139806 27361 net.cpp:100] Creating Layer resnet7b_eltwise
I0825 17:21:29.139809 27361 net.cpp:434] resnet7b_eltwise <- resnet7a_eltwise_resnet7a_eltwise_relu_0_split_1
I0825 17:21:29.139814 27361 net.cpp:434] resnet7b_eltwise <- resnet7b_expnd
I0825 17:21:29.139822 27361 net.cpp:408] resnet7b_eltwise -> resnet7b_eltwise
I0825 17:21:29.139842 27361 net.cpp:150] Setting up resnet7b_eltwise
I0825 17:21:29.139847 27361 net.cpp:157] Top shape: 1 256 128 128 (4194304)
I0825 17:21:29.139852 27361 net.cpp:165] Memory required for data: 2165309440
I0825 17:21:29.139855 27361 layer_factory.hpp:77] Creating layer resnet7b_eltwise_relu
I0825 17:21:29.139860 27361 net.cpp:100] Creating Layer resnet7b_eltwise_relu
I0825 17:21:29.139863 27361 net.cpp:434] resnet7b_eltwise_relu <- resnet7b_eltwise
I0825 17:21:29.139868 27361 net.cpp:395] resnet7b_eltwise_relu -> resnet7b_eltwise (in-place)
I0825 17:21:29.139873 27361 net.cpp:150] Setting up resnet7b_eltwise_relu
I0825 17:21:29.139876 27361 net.cpp:157] Top shape: 1 256 128 128 (4194304)
I0825 17:21:29.139880 27361 net.cpp:165] Memory required for data: 2182086656
I0825 17:21:29.139883 27361 layer_factory.hpp:77] Creating layer unpool2
I0825 17:21:29.139891 27361 net.cpp:100] Creating Layer unpool2
I0825 17:21:29.139894 27361 net.cpp:434] unpool2 <- resnet7b_eltwise
I0825 17:21:29.139900 27361 net.cpp:408] unpool2 -> unpool2
I0825 17:21:29.144255 27361 net.cpp:150] Setting up unpool2
I0825 17:21:29.144273 27361 net.cpp:157] Top shape: 1 128 256 256 (8388608)
I0825 17:21:29.144278 27361 net.cpp:165] Memory required for data: 2215641088
I0825 17:21:29.144284 27361 layer_factory.hpp:77] Creating layer concat28_concat
I0825 17:21:29.144290 27361 net.cpp:100] Creating Layer concat28_concat
I0825 17:21:29.144294 27361 net.cpp:434] concat28_concat <- resnet2b_eltwise_resnet2b_eltwise_relu_0_split_1
I0825 17:21:29.144306 27361 net.cpp:434] concat28_concat <- unpool2
I0825 17:21:29.144311 27361 net.cpp:408] concat28_concat -> concat28_concat
I0825 17:21:29.144337 27361 net.cpp:150] Setting up concat28_concat
I0825 17:21:29.144345 27361 net.cpp:157] Top shape: 1 256 256 256 (16777216)
I0825 17:21:29.144347 27361 net.cpp:165] Memory required for data: 2282749952
I0825 17:21:29.144351 27361 layer_factory.hpp:77] Creating layer concat28_concat_concat28_concat_0_split
I0825 17:21:29.144357 27361 net.cpp:100] Creating Layer concat28_concat_concat28_concat_0_split
I0825 17:21:29.144361 27361 net.cpp:434] concat28_concat_concat28_concat_0_split <- concat28_concat
I0825 17:21:29.144366 27361 net.cpp:408] concat28_concat_concat28_concat_0_split -> concat28_concat_concat28_concat_0_split_0
I0825 17:21:29.144371 27361 net.cpp:408] concat28_concat_concat28_concat_0_split -> concat28_concat_concat28_concat_0_split_1
I0825 17:21:29.144400 27361 net.cpp:150] Setting up concat28_concat_concat28_concat_0_split
I0825 17:21:29.144405 27361 net.cpp:157] Top shape: 1 256 256 256 (16777216)
I0825 17:21:29.144409 27361 net.cpp:157] Top shape: 1 256 256 256 (16777216)
I0825 17:21:29.144412 27361 net.cpp:165] Memory required for data: 2416967680
I0825 17:21:29.144417 27361 layer_factory.hpp:77] Creating layer resnet8a_bypass
I0825 17:21:29.144425 27361 net.cpp:100] Creating Layer resnet8a_bypass
I0825 17:21:29.144428 27361 net.cpp:434] resnet8a_bypass <- concat28_concat_concat28_concat_0_split_0
I0825 17:21:29.144433 27361 net.cpp:408] resnet8a_bypass -> resnet8a_bypass
I0825 17:21:29.145416 27361 net.cpp:150] Setting up resnet8a_bypass
I0825 17:21:29.145424 27361 net.cpp:157] Top shape: 1 128 256 256 (8388608)
I0825 17:21:29.145427 27361 net.cpp:165] Memory required for data: 2450522112
I0825 17:21:29.145432 27361 layer_factory.hpp:77] Creating layer resnet8a_btlnk
I0825 17:21:29.145440 27361 net.cpp:100] Creating Layer resnet8a_btlnk
I0825 17:21:29.145444 27361 net.cpp:434] resnet8a_btlnk <- concat28_concat_concat28_concat_0_split_1
I0825 17:21:29.145449 27361 net.cpp:408] resnet8a_btlnk -> resnet8a_btlnk
I0825 17:21:29.145695 27361 net.cpp:150] Setting up resnet8a_btlnk
I0825 17:21:29.145702 27361 net.cpp:157] Top shape: 1 16 256 256 (1048576)
I0825 17:21:29.145705 27361 net.cpp:165] Memory required for data: 2454716416
I0825 17:21:29.145710 27361 layer_factory.hpp:77] Creating layer resnet8a_btlnk_relu
I0825 17:21:29.145715 27361 net.cpp:100] Creating Layer resnet8a_btlnk_relu
I0825 17:21:29.145722 27361 net.cpp:434] resnet8a_btlnk_relu <- resnet8a_btlnk
I0825 17:21:29.145730 27361 net.cpp:395] resnet8a_btlnk_relu -> resnet8a_btlnk (in-place)
I0825 17:21:29.145736 27361 net.cpp:150] Setting up resnet8a_btlnk_relu
I0825 17:21:29.145741 27361 net.cpp:157] Top shape: 1 16 256 256 (1048576)
I0825 17:21:29.145745 27361 net.cpp:165] Memory required for data: 2458910720
I0825 17:21:29.145747 27361 layer_factory.hpp:77] Creating layer resnet8a_conv
I0825 17:21:29.145755 27361 net.cpp:100] Creating Layer resnet8a_conv
I0825 17:21:29.145758 27361 net.cpp:434] resnet8a_conv <- resnet8a_btlnk
I0825 17:21:29.145762 27361 net.cpp:408] resnet8a_conv -> resnet8a_conv
I0825 17:21:29.145961 27361 net.cpp:150] Setting up resnet8a_conv
I0825 17:21:29.145968 27361 net.cpp:157] Top shape: 1 16 256 256 (1048576)
I0825 17:21:29.145972 27361 net.cpp:165] Memory required for data: 2463105024
I0825 17:21:29.145977 27361 layer_factory.hpp:77] Creating layer resnet8a_conv_relu
I0825 17:21:29.145982 27361 net.cpp:100] Creating Layer resnet8a_conv_relu
I0825 17:21:29.145987 27361 net.cpp:434] resnet8a_conv_relu <- resnet8a_conv
I0825 17:21:29.145992 27361 net.cpp:395] resnet8a_conv_relu -> resnet8a_conv (in-place)
I0825 17:21:29.145997 27361 net.cpp:150] Setting up resnet8a_conv_relu
I0825 17:21:29.146000 27361 net.cpp:157] Top shape: 1 16 256 256 (1048576)
I0825 17:21:29.146003 27361 net.cpp:165] Memory required for data: 2467299328
I0825 17:21:29.146006 27361 layer_factory.hpp:77] Creating layer resnet8a_expnd
I0825 17:21:29.146018 27361 net.cpp:100] Creating Layer resnet8a_expnd
I0825 17:21:29.146028 27361 net.cpp:434] resnet8a_expnd <- resnet8a_conv
I0825 17:21:29.146033 27361 net.cpp:408] resnet8a_expnd -> resnet8a_expnd
I0825 17:21:29.146220 27361 net.cpp:150] Setting up resnet8a_expnd
I0825 17:21:29.146229 27361 net.cpp:157] Top shape: 1 128 256 256 (8388608)
I0825 17:21:29.146231 27361 net.cpp:165] Memory required for data: 2500853760
I0825 17:21:29.146235 27361 layer_factory.hpp:77] Creating layer resnet8a_eltwise
I0825 17:21:29.146241 27361 net.cpp:100] Creating Layer resnet8a_eltwise
I0825 17:21:29.146245 27361 net.cpp:434] resnet8a_eltwise <- resnet8a_bypass
I0825 17:21:29.146250 27361 net.cpp:434] resnet8a_eltwise <- resnet8a_expnd
I0825 17:21:29.146255 27361 net.cpp:408] resnet8a_eltwise -> resnet8a_eltwise
I0825 17:21:29.146275 27361 net.cpp:150] Setting up resnet8a_eltwise
I0825 17:21:29.146280 27361 net.cpp:157] Top shape: 1 128 256 256 (8388608)
I0825 17:21:29.146283 27361 net.cpp:165] Memory required for data: 2534408192
I0825 17:21:29.146286 27361 layer_factory.hpp:77] Creating layer resnet8a_eltwise_relu
I0825 17:21:29.146291 27361 net.cpp:100] Creating Layer resnet8a_eltwise_relu
I0825 17:21:29.146296 27361 net.cpp:434] resnet8a_eltwise_relu <- resnet8a_eltwise
I0825 17:21:29.146299 27361 net.cpp:395] resnet8a_eltwise_relu -> resnet8a_eltwise (in-place)
I0825 17:21:29.146304 27361 net.cpp:150] Setting up resnet8a_eltwise_relu
I0825 17:21:29.146308 27361 net.cpp:157] Top shape: 1 128 256 256 (8388608)
I0825 17:21:29.146311 27361 net.cpp:165] Memory required for data: 2567962624
I0825 17:21:29.146316 27361 layer_factory.hpp:77] Creating layer resnet8a_eltwise_resnet8a_eltwise_relu_0_split
I0825 17:21:29.146320 27361 net.cpp:100] Creating Layer resnet8a_eltwise_resnet8a_eltwise_relu_0_split
I0825 17:21:29.146323 27361 net.cpp:434] resnet8a_eltwise_resnet8a_eltwise_relu_0_split <- resnet8a_eltwise
I0825 17:21:29.146327 27361 net.cpp:408] resnet8a_eltwise_resnet8a_eltwise_relu_0_split -> resnet8a_eltwise_resnet8a_eltwise_relu_0_split_0
I0825 17:21:29.146333 27361 net.cpp:408] resnet8a_eltwise_resnet8a_eltwise_relu_0_split -> resnet8a_eltwise_resnet8a_eltwise_relu_0_split_1
I0825 17:21:29.146360 27361 net.cpp:150] Setting up resnet8a_eltwise_resnet8a_eltwise_relu_0_split
I0825 17:21:29.146366 27361 net.cpp:157] Top shape: 1 128 256 256 (8388608)
I0825 17:21:29.146370 27361 net.cpp:157] Top shape: 1 128 256 256 (8388608)
I0825 17:21:29.146373 27361 net.cpp:165] Memory required for data: 2635071488
I0825 17:21:29.146380 27361 layer_factory.hpp:77] Creating layer resnet8b_btlnk
I0825 17:21:29.146389 27361 net.cpp:100] Creating Layer resnet8b_btlnk
I0825 17:21:29.146392 27361 net.cpp:434] resnet8b_btlnk <- resnet8a_eltwise_resnet8a_eltwise_relu_0_split_0
I0825 17:21:29.146399 27361 net.cpp:408] resnet8b_btlnk -> resnet8b_btlnk
I0825 17:21:29.146584 27361 net.cpp:150] Setting up resnet8b_btlnk
I0825 17:21:29.146595 27361 net.cpp:157] Top shape: 1 16 256 256 (1048576)
I0825 17:21:29.146600 27361 net.cpp:165] Memory required for data: 2639265792
I0825 17:21:29.146603 27361 layer_factory.hpp:77] Creating layer resnet8b_btlnk_relu
I0825 17:21:29.146610 27361 net.cpp:100] Creating Layer resnet8b_btlnk_relu
I0825 17:21:29.146613 27361 net.cpp:434] resnet8b_btlnk_relu <- resnet8b_btlnk
I0825 17:21:29.146617 27361 net.cpp:395] resnet8b_btlnk_relu -> resnet8b_btlnk (in-place)
I0825 17:21:29.146622 27361 net.cpp:150] Setting up resnet8b_btlnk_relu
I0825 17:21:29.146626 27361 net.cpp:157] Top shape: 1 16 256 256 (1048576)
I0825 17:21:29.146631 27361 net.cpp:165] Memory required for data: 2643460096
I0825 17:21:29.146633 27361 layer_factory.hpp:77] Creating layer resnet8b_conv
I0825 17:21:29.146641 27361 net.cpp:100] Creating Layer resnet8b_conv
I0825 17:21:29.146644 27361 net.cpp:434] resnet8b_conv <- resnet8b_btlnk
I0825 17:21:29.146649 27361 net.cpp:408] resnet8b_conv -> resnet8b_conv
I0825 17:21:29.146845 27361 net.cpp:150] Setting up resnet8b_conv
I0825 17:21:29.146852 27361 net.cpp:157] Top shape: 1 16 256 256 (1048576)
I0825 17:21:29.146855 27361 net.cpp:165] Memory required for data: 2647654400
I0825 17:21:29.146867 27361 layer_factory.hpp:77] Creating layer resnet8b_conv_relu
I0825 17:21:29.146873 27361 net.cpp:100] Creating Layer resnet8b_conv_relu
I0825 17:21:29.146878 27361 net.cpp:434] resnet8b_conv_relu <- resnet8b_conv
I0825 17:21:29.146883 27361 net.cpp:395] resnet8b_conv_relu -> resnet8b_conv (in-place)
I0825 17:21:29.146888 27361 net.cpp:150] Setting up resnet8b_conv_relu
I0825 17:21:29.146891 27361 net.cpp:157] Top shape: 1 16 256 256 (1048576)
I0825 17:21:29.146894 27361 net.cpp:165] Memory required for data: 2651848704
I0825 17:21:29.146898 27361 layer_factory.hpp:77] Creating layer resnet8b_expnd
I0825 17:21:29.146903 27361 net.cpp:100] Creating Layer resnet8b_expnd
I0825 17:21:29.146908 27361 net.cpp:434] resnet8b_expnd <- resnet8b_conv
I0825 17:21:29.146913 27361 net.cpp:408] resnet8b_expnd -> resnet8b_expnd
I0825 17:21:29.147105 27361 net.cpp:150] Setting up resnet8b_expnd
I0825 17:21:29.147114 27361 net.cpp:157] Top shape: 1 128 256 256 (8388608)
I0825 17:21:29.147116 27361 net.cpp:165] Memory required for data: 2685403136
I0825 17:21:29.147121 27361 layer_factory.hpp:77] Creating layer resnet8b_eltwise
I0825 17:21:29.147128 27361 net.cpp:100] Creating Layer resnet8b_eltwise
I0825 17:21:29.147132 27361 net.cpp:434] resnet8b_eltwise <- resnet8a_eltwise_resnet8a_eltwise_relu_0_split_1
I0825 17:21:29.147137 27361 net.cpp:434] resnet8b_eltwise <- resnet8b_expnd
I0825 17:21:29.147141 27361 net.cpp:408] resnet8b_eltwise -> resnet8b_eltwise
I0825 17:21:29.147159 27361 net.cpp:150] Setting up resnet8b_eltwise
I0825 17:21:29.147166 27361 net.cpp:157] Top shape: 1 128 256 256 (8388608)
I0825 17:21:29.147168 27361 net.cpp:165] Memory required for data: 2718957568
I0825 17:21:29.147171 27361 layer_factory.hpp:77] Creating layer resnet8b_eltwise_relu
I0825 17:21:29.147177 27361 net.cpp:100] Creating Layer resnet8b_eltwise_relu
I0825 17:21:29.147181 27361 net.cpp:434] resnet8b_eltwise_relu <- resnet8b_eltwise
I0825 17:21:29.147186 27361 net.cpp:395] resnet8b_eltwise_relu -> resnet8b_eltwise (in-place)
I0825 17:21:29.147191 27361 net.cpp:150] Setting up resnet8b_eltwise_relu
I0825 17:21:29.147194 27361 net.cpp:157] Top shape: 1 128 256 256 (8388608)
I0825 17:21:29.147197 27361 net.cpp:165] Memory required for data: 2752512000
I0825 17:21:29.147200 27361 layer_factory.hpp:77] Creating layer unpool1
I0825 17:21:29.147207 27361 net.cpp:100] Creating Layer unpool1
I0825 17:21:29.147210 27361 net.cpp:434] unpool1 <- resnet8b_eltwise
I0825 17:21:29.147220 27361 net.cpp:408] unpool1 -> unpool1
I0825 17:21:29.148766 27361 net.cpp:150] Setting up unpool1
I0825 17:21:29.148778 27361 net.cpp:157] Top shape: 1 64 512 512 (16777216)
I0825 17:21:29.148782 27361 net.cpp:165] Memory required for data: 2819620864
I0825 17:21:29.148788 27361 layer_factory.hpp:77] Creating layer concat19_concat
I0825 17:21:29.148797 27361 net.cpp:100] Creating Layer concat19_concat
I0825 17:21:29.148800 27361 net.cpp:434] concat19_concat <- resnet1b_eltwise_resnet1b_eltwise_relu_0_split_1
I0825 17:21:29.148805 27361 net.cpp:434] concat19_concat <- unpool1
I0825 17:21:29.148813 27361 net.cpp:408] concat19_concat -> concat19_concat
I0825 17:21:29.148841 27361 net.cpp:150] Setting up concat19_concat
I0825 17:21:29.148849 27361 net.cpp:157] Top shape: 1 128 512 512 (33554432)
I0825 17:21:29.148852 27361 net.cpp:165] Memory required for data: 2953838592
I0825 17:21:29.148856 27361 layer_factory.hpp:77] Creating layer concat19_concat_concat19_concat_0_split
I0825 17:21:29.148861 27361 net.cpp:100] Creating Layer concat19_concat_concat19_concat_0_split
I0825 17:21:29.148865 27361 net.cpp:434] concat19_concat_concat19_concat_0_split <- concat19_concat
I0825 17:21:29.148870 27361 net.cpp:408] concat19_concat_concat19_concat_0_split -> concat19_concat_concat19_concat_0_split_0
I0825 17:21:29.148875 27361 net.cpp:408] concat19_concat_concat19_concat_0_split -> concat19_concat_concat19_concat_0_split_1
I0825 17:21:29.148905 27361 net.cpp:150] Setting up concat19_concat_concat19_concat_0_split
I0825 17:21:29.148910 27361 net.cpp:157] Top shape: 1 128 512 512 (33554432)
I0825 17:21:29.148921 27361 net.cpp:157] Top shape: 1 128 512 512 (33554432)
I0825 17:21:29.148926 27361 net.cpp:165] Memory required for data: 3222274048
I0825 17:21:29.148928 27361 layer_factory.hpp:77] Creating layer resnet9a_bypass
I0825 17:21:29.148936 27361 net.cpp:100] Creating Layer resnet9a_bypass
I0825 17:21:29.148941 27361 net.cpp:434] resnet9a_bypass <- concat19_concat_concat19_concat_0_split_0
I0825 17:21:29.148947 27361 net.cpp:408] resnet9a_bypass -> resnet9a_bypass
I0825 17:21:29.149298 27361 net.cpp:150] Setting up resnet9a_bypass
I0825 17:21:29.149305 27361 net.cpp:157] Top shape: 1 64 512 512 (16777216)
I0825 17:21:29.149309 27361 net.cpp:165] Memory required for data: 3289382912
I0825 17:21:29.149322 27361 layer_factory.hpp:77] Creating layer resnet9a_btlnk
I0825 17:21:29.149330 27361 net.cpp:100] Creating Layer resnet9a_btlnk
I0825 17:21:29.149334 27361 net.cpp:434] resnet9a_btlnk <- concat19_concat_concat19_concat_0_split_1
I0825 17:21:29.149340 27361 net.cpp:408] resnet9a_btlnk -> resnet9a_btlnk
I0825 17:21:29.149505 27361 net.cpp:150] Setting up resnet9a_btlnk
I0825 17:21:29.149513 27361 net.cpp:157] Top shape: 1 8 512 512 (2097152)
I0825 17:21:29.149515 27361 net.cpp:165] Memory required for data: 3297771520
I0825 17:21:29.149520 27361 layer_factory.hpp:77] Creating layer resnet9a_btlnk_relu
I0825 17:21:29.149525 27361 net.cpp:100] Creating Layer resnet9a_btlnk_relu
I0825 17:21:29.149529 27361 net.cpp:434] resnet9a_btlnk_relu <- resnet9a_btlnk
I0825 17:21:29.149534 27361 net.cpp:395] resnet9a_btlnk_relu -> resnet9a_btlnk (in-place)
I0825 17:21:29.149540 27361 net.cpp:150] Setting up resnet9a_btlnk_relu
I0825 17:21:29.149544 27361 net.cpp:157] Top shape: 1 8 512 512 (2097152)
I0825 17:21:29.149547 27361 net.cpp:165] Memory required for data: 3306160128
I0825 17:21:29.149550 27361 layer_factory.hpp:77] Creating layer resnet9a_conv
I0825 17:21:29.149556 27361 net.cpp:100] Creating Layer resnet9a_conv
I0825 17:21:29.149560 27361 net.cpp:434] resnet9a_conv <- resnet9a_btlnk
I0825 17:21:29.149565 27361 net.cpp:408] resnet9a_conv -> resnet9a_conv
I0825 17:21:29.149715 27361 net.cpp:150] Setting up resnet9a_conv
I0825 17:21:29.149724 27361 net.cpp:157] Top shape: 1 8 512 512 (2097152)
I0825 17:21:29.149726 27361 net.cpp:165] Memory required for data: 3314548736
I0825 17:21:29.149731 27361 layer_factory.hpp:77] Creating layer resnet9a_conv_relu
I0825 17:21:29.149736 27361 net.cpp:100] Creating Layer resnet9a_conv_relu
I0825 17:21:29.149744 27361 net.cpp:434] resnet9a_conv_relu <- resnet9a_conv
I0825 17:21:29.149749 27361 net.cpp:395] resnet9a_conv_relu -> resnet9a_conv (in-place)
I0825 17:21:29.149754 27361 net.cpp:150] Setting up resnet9a_conv_relu
I0825 17:21:29.149757 27361 net.cpp:157] Top shape: 1 8 512 512 (2097152)
I0825 17:21:29.149760 27361 net.cpp:165] Memory required for data: 3322937344
I0825 17:21:29.149763 27361 layer_factory.hpp:77] Creating layer resnet9a_expnd
I0825 17:21:29.149772 27361 net.cpp:100] Creating Layer resnet9a_expnd
I0825 17:21:29.149775 27361 net.cpp:434] resnet9a_expnd <- resnet9a_conv
I0825 17:21:29.149780 27361 net.cpp:408] resnet9a_expnd -> resnet9a_expnd
I0825 17:21:29.149933 27361 net.cpp:150] Setting up resnet9a_expnd
I0825 17:21:29.149940 27361 net.cpp:157] Top shape: 1 64 512 512 (16777216)
I0825 17:21:29.149943 27361 net.cpp:165] Memory required for data: 3390046208
I0825 17:21:29.149948 27361 layer_factory.hpp:77] Creating layer resnet9a_eltwise
I0825 17:21:29.149953 27361 net.cpp:100] Creating Layer resnet9a_eltwise
I0825 17:21:29.149957 27361 net.cpp:434] resnet9a_eltwise <- resnet9a_bypass
I0825 17:21:29.149962 27361 net.cpp:434] resnet9a_eltwise <- resnet9a_expnd
I0825 17:21:29.149966 27361 net.cpp:408] resnet9a_eltwise -> resnet9a_eltwise
I0825 17:21:29.149986 27361 net.cpp:150] Setting up resnet9a_eltwise
I0825 17:21:29.149992 27361 net.cpp:157] Top shape: 1 64 512 512 (16777216)
I0825 17:21:29.149996 27361 net.cpp:165] Memory required for data: 3457155072
I0825 17:21:29.149998 27361 layer_factory.hpp:77] Creating layer resnet9a_eltwise_relu
I0825 17:21:29.150009 27361 net.cpp:100] Creating Layer resnet9a_eltwise_relu
I0825 17:21:29.150012 27361 net.cpp:434] resnet9a_eltwise_relu <- resnet9a_eltwise
I0825 17:21:29.150017 27361 net.cpp:395] resnet9a_eltwise_relu -> resnet9a_eltwise (in-place)
I0825 17:21:29.150022 27361 net.cpp:150] Setting up resnet9a_eltwise_relu
I0825 17:21:29.150027 27361 net.cpp:157] Top shape: 1 64 512 512 (16777216)
I0825 17:21:29.150029 27361 net.cpp:165] Memory required for data: 3524263936
I0825 17:21:29.150032 27361 layer_factory.hpp:77] Creating layer resnet9a_eltwise_resnet9a_eltwise_relu_0_split
I0825 17:21:29.150038 27361 net.cpp:100] Creating Layer resnet9a_eltwise_resnet9a_eltwise_relu_0_split
I0825 17:21:29.150040 27361 net.cpp:434] resnet9a_eltwise_resnet9a_eltwise_relu_0_split <- resnet9a_eltwise
I0825 17:21:29.150045 27361 net.cpp:408] resnet9a_eltwise_resnet9a_eltwise_relu_0_split -> resnet9a_eltwise_resnet9a_eltwise_relu_0_split_0
I0825 17:21:29.150051 27361 net.cpp:408] resnet9a_eltwise_resnet9a_eltwise_relu_0_split -> resnet9a_eltwise_resnet9a_eltwise_relu_0_split_1
I0825 17:21:29.150079 27361 net.cpp:150] Setting up resnet9a_eltwise_resnet9a_eltwise_relu_0_split
I0825 17:21:29.150084 27361 net.cpp:157] Top shape: 1 64 512 512 (16777216)
I0825 17:21:29.150089 27361 net.cpp:157] Top shape: 1 64 512 512 (16777216)
I0825 17:21:29.150091 27361 net.cpp:165] Memory required for data: 3658481664
I0825 17:21:29.150095 27361 layer_factory.hpp:77] Creating layer resnet9b_bypass
I0825 17:21:29.150104 27361 net.cpp:100] Creating Layer resnet9b_bypass
I0825 17:21:29.150108 27361 net.cpp:434] resnet9b_bypass <- resnet9a_eltwise_resnet9a_eltwise_relu_0_split_0
I0825 17:21:29.150113 27361 net.cpp:408] resnet9b_bypass -> resnet9b_bypass
I0825 17:21:29.150354 27361 net.cpp:150] Setting up resnet9b_bypass
I0825 17:21:29.150362 27361 net.cpp:157] Top shape: 1 64 512 512 (16777216)
I0825 17:21:29.150365 27361 net.cpp:165] Memory required for data: 3725590528
I0825 17:21:29.150369 27361 layer_factory.hpp:77] Creating layer resnet9b_btlnk
I0825 17:21:29.150377 27361 net.cpp:100] Creating Layer resnet9b_btlnk
I0825 17:21:29.150382 27361 net.cpp:434] resnet9b_btlnk <- resnet9a_eltwise_resnet9a_eltwise_relu_0_split_1
I0825 17:21:29.150387 27361 net.cpp:408] resnet9b_btlnk -> resnet9b_btlnk
I0825 17:21:29.150533 27361 net.cpp:150] Setting up resnet9b_btlnk
I0825 17:21:29.150540 27361 net.cpp:157] Top shape: 1 8 512 512 (2097152)
I0825 17:21:29.150543 27361 net.cpp:165] Memory required for data: 3733979136
I0825 17:21:29.150552 27361 layer_factory.hpp:77] Creating layer resnet9b_btlnk_relu
I0825 17:21:29.150558 27361 net.cpp:100] Creating Layer resnet9b_btlnk_relu
I0825 17:21:29.150563 27361 net.cpp:434] resnet9b_btlnk_relu <- resnet9b_btlnk
I0825 17:21:29.150566 27361 net.cpp:395] resnet9b_btlnk_relu -> resnet9b_btlnk (in-place)
I0825 17:21:29.150571 27361 net.cpp:150] Setting up resnet9b_btlnk_relu
I0825 17:21:29.150576 27361 net.cpp:157] Top shape: 1 8 512 512 (2097152)
I0825 17:21:29.150579 27361 net.cpp:165] Memory required for data: 3742367744
I0825 17:21:29.150583 27361 layer_factory.hpp:77] Creating layer resnet9b_conv
I0825 17:21:29.150595 27361 net.cpp:100] Creating Layer resnet9b_conv
I0825 17:21:29.150599 27361 net.cpp:434] resnet9b_conv <- resnet9b_btlnk
I0825 17:21:29.150606 27361 net.cpp:408] resnet9b_conv -> resnet9b_conv
I0825 17:21:29.150756 27361 net.cpp:150] Setting up resnet9b_conv
I0825 17:21:29.150764 27361 net.cpp:157] Top shape: 1 8 512 512 (2097152)
I0825 17:21:29.150768 27361 net.cpp:165] Memory required for data: 3750756352
I0825 17:21:29.150773 27361 layer_factory.hpp:77] Creating layer resnet9b_conv_relu
I0825 17:21:29.150779 27361 net.cpp:100] Creating Layer resnet9b_conv_relu
I0825 17:21:29.150784 27361 net.cpp:434] resnet9b_conv_relu <- resnet9b_conv
I0825 17:21:29.150787 27361 net.cpp:395] resnet9b_conv_relu -> resnet9b_conv (in-place)
I0825 17:21:29.150792 27361 net.cpp:150] Setting up resnet9b_conv_relu
I0825 17:21:29.150796 27361 net.cpp:157] Top shape: 1 8 512 512 (2097152)
I0825 17:21:29.150800 27361 net.cpp:165] Memory required for data: 3759144960
I0825 17:21:29.150810 27361 layer_factory.hpp:77] Creating layer resnet9b_expnd
I0825 17:21:29.150815 27361 net.cpp:100] Creating Layer resnet9b_expnd
I0825 17:21:29.150818 27361 net.cpp:434] resnet9b_expnd <- resnet9b_conv
I0825 17:21:29.150823 27361 net.cpp:408] resnet9b_expnd -> resnet9b_expnd
I0825 17:21:29.150975 27361 net.cpp:150] Setting up resnet9b_expnd
I0825 17:21:29.150984 27361 net.cpp:157] Top shape: 1 64 512 512 (16777216)
I0825 17:21:29.150986 27361 net.cpp:165] Memory required for data: 3826253824
I0825 17:21:29.150990 27361 layer_factory.hpp:77] Creating layer resnet9b_eltwise
I0825 17:21:29.150998 27361 net.cpp:100] Creating Layer resnet9b_eltwise
I0825 17:21:29.151002 27361 net.cpp:434] resnet9b_eltwise <- resnet9b_bypass
I0825 17:21:29.151006 27361 net.cpp:434] resnet9b_eltwise <- resnet9b_expnd
I0825 17:21:29.151011 27361 net.cpp:408] resnet9b_eltwise -> resnet9b_eltwise
I0825 17:21:29.151029 27361 net.cpp:150] Setting up resnet9b_eltwise
I0825 17:21:29.151036 27361 net.cpp:157] Top shape: 1 64 512 512 (16777216)
I0825 17:21:29.151038 27361 net.cpp:165] Memory required for data: 3893362688
I0825 17:21:29.151041 27361 layer_factory.hpp:77] Creating layer resnet9b_eltwise_relu
I0825 17:21:29.151046 27361 net.cpp:100] Creating Layer resnet9b_eltwise_relu
I0825 17:21:29.151051 27361 net.cpp:434] resnet9b_eltwise_relu <- resnet9b_eltwise
I0825 17:21:29.151056 27361 net.cpp:395] resnet9b_eltwise_relu -> resnet9b_eltwise (in-place)
I0825 17:21:29.151060 27361 net.cpp:150] Setting up resnet9b_eltwise_relu
I0825 17:21:29.151064 27361 net.cpp:157] Top shape: 1 64 512 512 (16777216)
I0825 17:21:29.151067 27361 net.cpp:165] Memory required for data: 3960471552
I0825 17:21:29.151072 27361 layer_factory.hpp:77] Creating layer score_conv
I0825 17:21:29.151079 27361 net.cpp:100] Creating Layer score_conv
I0825 17:21:29.151082 27361 net.cpp:434] score_conv <- resnet9b_eltwise
I0825 17:21:29.151087 27361 net.cpp:408] score_conv -> score_conv
I0825 17:21:29.151789 27361 net.cpp:150] Setting up score_conv
I0825 17:21:29.151803 27361 net.cpp:157] Top shape: 1 4 512 512 (1048576)
I0825 17:21:29.151806 27361 net.cpp:165] Memory required for data: 3964665856
I0825 17:21:29.151813 27361 layer_factory.hpp:77] Creating layer score_relu
I0825 17:21:29.151819 27361 net.cpp:100] Creating Layer score_relu
I0825 17:21:29.151823 27361 net.cpp:434] score_relu <- score_conv
I0825 17:21:29.151829 27361 net.cpp:395] score_relu -> score_conv (in-place)
I0825 17:21:29.151839 27361 net.cpp:150] Setting up score_relu
I0825 17:21:29.151842 27361 net.cpp:157] Top shape: 1 4 512 512 (1048576)
I0825 17:21:29.151846 27361 net.cpp:165] Memory required for data: 3968860160
I0825 17:21:29.151849 27361 layer_factory.hpp:77] Creating layer crop_score
I0825 17:21:29.151860 27361 net.cpp:100] Creating Layer crop_score
I0825 17:21:29.151865 27361 net.cpp:434] crop_score <- score_conv
I0825 17:21:29.151868 27361 net.cpp:434] crop_score <- label_data_1_split_0
I0825 17:21:29.151875 27361 net.cpp:408] crop_score -> crop_score
I0825 17:21:29.151901 27361 net.cpp:150] Setting up crop_score
I0825 17:21:29.151907 27361 net.cpp:157] Top shape: 1 4 512 512 (1048576)
I0825 17:21:29.151911 27361 net.cpp:165] Memory required for data: 3973054464
I0825 17:21:29.151913 27361 layer_factory.hpp:77] Creating layer crop_score_crop_score_0_split
I0825 17:21:29.151918 27361 net.cpp:100] Creating Layer crop_score_crop_score_0_split
I0825 17:21:29.151922 27361 net.cpp:434] crop_score_crop_score_0_split <- crop_score
I0825 17:21:29.151928 27361 net.cpp:408] crop_score_crop_score_0_split -> crop_score_crop_score_0_split_0
I0825 17:21:29.151933 27361 net.cpp:408] crop_score_crop_score_0_split -> crop_score_crop_score_0_split_1
I0825 17:21:29.151962 27361 net.cpp:150] Setting up crop_score_crop_score_0_split
I0825 17:21:29.151968 27361 net.cpp:157] Top shape: 1 4 512 512 (1048576)
I0825 17:21:29.151971 27361 net.cpp:157] Top shape: 1 4 512 512 (1048576)
I0825 17:21:29.151974 27361 net.cpp:165] Memory required for data: 3981443072
I0825 17:21:29.151983 27361 layer_factory.hpp:77] Creating layer softmaxloss
I0825 17:21:29.151990 27361 net.cpp:100] Creating Layer softmaxloss
I0825 17:21:29.151994 27361 net.cpp:434] softmaxloss <- crop_score_crop_score_0_split_0
I0825 17:21:29.151998 27361 net.cpp:434] softmaxloss <- label_data_1_split_1
…
